param_rectify/p_net.pth (torch_old, 31737 bytes, 24 tensors)

pre_layer.0.weight f4 [10, 3, 3, 3]
-0.05466352 0.1368737 0.1292124 0.15724261 0.09817017 0.20384084 -0.034874473 -0.073868826
-0.27822867 0.057761356 -0.13742404 -0.09186601 -0.093451984 0.21583427 -0.029557498 -0.2875301
-0.19282085 -0.12545748 0.05603499 0.1261341 -0.008813438 0.21895084 0.17506646 0.05292722
0.0033505978 -0.25716937 0.03122464 0.1963697 0.024031999 0.020430846 0.06710511 -0.21841438
-0.22346514 -0.2520169 -0.17899896 -0.28945628 0.22433709 0.12330751 0.117784 0.07302709
0.060913347 0.019124908 0.04405361 0.026798842 0.1525297 0.18672077 0.1373378 -0.0889634
-0.31340638 0.109392755 0.07382665 -0.13898197 -0.034662105 0.044626094 -0.26905394 0.26734307
0.06605856 -0.28510356 0.1427545 0.0061630774 -0.25259346 0.0757857 -0.012244958 -0.11853021
0.050602097 0.24750942 -0.1673034 0.23804069 -0.049627088 -0.004811447 0.2102522 -0.041433107
-0.20073202 -0.0032624109 -0.03736397 -0.20058177 0.07021449 0.13398673 -0.18659283 0.15239172
0.15659067 -0.041831177 0.09492884 -0.03455269 0.11934189 -0.03535044 0.14392309 -0.037390005
0.10200604 0.24458022 0.2828194 -0.2562298 -0.017413735 -0.11197022 -0.5625418 0.065762185
-0.10471487 -0.3082052 -0.060607143 0.112046935 -0.12622033 0.11043389 0.0011579506 -0.2848284
0.017411245 -0.01801831 0.05396095 0.01449976 -0.25069624 -0.11643928 -0.09043607 -0.19474284
0.15272394 0.117544346 0.03444912 0.14067072 -0.05024408 -0.11265703 -0.17785798 -0.024653584
-0.23175612 0.004536227 0.058920752 0.18802415 0.26335558 0.113863446 -0.006212568 -0.28261003
0.12430151 -0.10848929 0.06802349 0.20120604 0.10806249 0.18417723 0.008586909 -0.14376135
-0.17689736 0.19753814 0.06686248 -0.03550996 0.34697697 0.058429714 -0.034526806 0.37520167
0.11801213 -0.26579145 -0.006476387 0.16805899 -0.21100472 0.17777462 -0.08783813 -0.16881967
-0.0918142 0.15483251 -0.14867912 -0.06675361 0.102589 -0.06959445 0.030696983 0.17334045
0.18927126 0.09026278 -0.27824622 0.08217629 -0.17613932 -0.061933216 -0.2313693 -0.2019399
-0.25267124 -0.22542524 -0.05614539 0.17995496 -0.02566243 0.20392779 0.07191953 -0.009419771
0.03578661 0.18096304 0.39738208 -0.04892556 0.12983666 -0.045098055 0.028954515 0.13447598
0.0912456 0.12970346 0.07803979 0.016831294 -0.027821155 -0.19325313 -0.10655453 -0.148827
0.038323455 0.11924162 -0.10163093 0.19425143 0.24999018 0.33471912 -0.120557755 -0.2400101
-0.2341227 -0.15690409 0.015394025 -0.102135345 -0.023670327 0.025521724 0.09938146 0.0129220635
-0.110302344 -0.005845678 0.038702298 0.12040716 -0.053851414 0.06647421 0.24853922 0.017355869
0.29240444 -0.098609574 -0.19535758 0.083747834 0.010923829 -0.31052852 0.21297349 -0.12274341
0.029390017 0.13133486 0.14328605 -0.23571515 0.1715669 -0.06834035 -0.06074015 -0.17901433
-0.03519708 0.19934243 -0.07299729 0.054635998 -0.26019332 0.06862738 0.06578119 0.09272105
0.087388225 0.1012904 -0.20459896 0.009229223 0.1528309 0.16974883 -0.25095254 -0.009620798
-0.13460472 0.11191562 -0.08008288 0.035717666 -0.010906235 0.2869967 -0.15137039 -0.4341984
00000000: dbe6 5fbd 9f28 0c3e 4150 043e 3504 213e
00000010: 710d c93d a7bb 503e 89d8 0ebd 8a48 97bd
00000020: fd73 8ebe 2c97 6c3d e3b8 0cbe 3f24 bcbd
00000030: c163 bfbd a903 5d3e 9122 f2bc 2537 93be
00000040: d472 45be ed77 00be f284 653d 4c29 013e
00000050: 3d66 10bc a634 603e 9f44 333e 36ca 583d
00000060: b495 5b3b b4ab 83be d1ca ff3c 2315 493e
00000070: c1de c43c 975e a73c 676e 893d 05a8 5fbe
00000080: 0cd4 64be 5c08 81be 814b 37be 9d33 94be
00000090: 9fb8 653e a688 fc3d bd38 f13d 3a8f 953d
000000a0: 4680 793d d7ab 9c3c 8f71 343d 3f89 db3c
000000b0: bf30 1c3e bb33 3f3e 48a2 0c3e 7132 b6bd
000000c0: cd76 a0be 4f09 e03d 6d32 973d 4a51 0ebe
000000d0: daf9 0dbd dac9 363d 70c1 89be 31e1 883e
000000e0: b649 873d 18f9 91be 3c2e 123e a4f3 c93b
000000f0: ee53 81be 8835 9b3d 149f 48bc f7bf f2bd
00000100: 2544 4f3d 1c73 7d3e 9551 2bbe f0c0 733e
00000110: c645 4bbd 58a9 9dbb 5a4c 573e c3b5 29bd
00000120: b28c 4dbe 2cce 55bb f60a 19bd 4f65 4dbe
00000130: 9dcc 8f3d d133 093e 3112 3fbe 930c 1c3e
00000140: 4e59 203e 2b57 2bbd 0d6a c23d 1f87 0dbd
00000150: 8569 f43d 9fcb 10bd 9360 133e 4326 19bd
00000160: 8be8 d03d 3d73 7a3e b4cd 903e 8d30 83be
00000170: 40a7 8ebc a550 e5bd bd02 10bf 53ae 863d
00000180: c074 d6bd 12cd 9dbe 323f 78bd dd78 e53d
00000190: e73f 01be 2a2b e23d 60c6 973a 07d5 91be
000001a0: 07a2 8e3c 239b 93bc 2806 5d3d 6790 6d3c
000001b0: 425b 80be b877 eebd 8c36 b9bd ab6a 47be
000001c0: aa63 1c3e 17bb f03d 851a 0d3d fc0b 103e
000001d0: bdcc 4dbd bbb8 e6bd 6720 36be 50f6 c9bc
000001e0: 7a51 6dbe a1a4 943b e356 713d 6789 403e
000001f0: 8bd6 863e 3d31 e93d cc92 cbbb 43b2 90be
00000200: ca91 fe3d a22f debd e64f 8b3d f508 4e3e
00000210: de4f dd3d f598 3c3e 1bb0 0c3c 2d36 13be
00000220: 9524 35be 7047 4a3e 32ef 883d e472 11bd
00000230: f7a6 b13e ff53 6f3d fb6b 0dbd 6f1a c03e
00000240: 58b0 f13d d115 88be df37 d4bb a817 2c3e
00000250: 9f11 58be 8d0a 363e 7ae4 b3bd 10df 2cbe
00000260: 1509 bcbd 6a8c 1e3e 573f 18be 1eb6 88bd
00000270: 2e1a d23d 8987 8ebd 3d78 fb3c 2980 313e
00000280: 53d0 413e b1db b83d 4a76 8ebe 0b4c a83d
00000290: de5d 34be afad 7dbd 13ec 6cbe 55c9 4ebe
000002a0: 205e 81be e0d5 66be b5f8 65bd 1d46 383e
000002b0: 043a d2bc 72d2 503e 8c4a 933d 6255 1abc
000002c0: fb94 123d 604e 393e aa75 cb3e 2b66 48bd
000002d0: e7f3 043e bdb8 38bd 0532 ed3c 12b4 093e
000002e0: f9de ba3d fcd0 043e 53d3 9f3d c8e1 893c
000002f0: 31e9 e3bc 26e4 45be 4339 dabd 1b66 18be
00000300: 0ef9 1c3d f334 f43d e123 d0bd d9e9 463e
00000310: 6dfd 7f3e 4e60 ab3e fce6 f6bd 35c5 75be
00000320: dcbd 6fbe 77ab 20be 3837 7c3c 562c d1bd
00000330: 46e8 c1bc ef12 d13c 8288 cb3d 10b7 533c
00000340: 32e6 e1bd 1a8d bfbb 4d86 1e3d 0798 f63d
00000350: 4d93 5cbd a123 883d 1181 7e3e e52d 8e3c
00000360: 09b6 953e d1f3 c9bd d10b 48be fc83 ab3d
00000370: dcf9 323c 98fd 9ebe b915 5a3e e660 fbbd
00000380: 55c3 f03c a57c 063e 94b9 123e 505f 71be
00000390: 3caf 2f3e 07f6 8bbd aaca 78bd 884f 37be
000003a0: d02a 10bd 6c20 4c3e 9a7f 95bd ffc9 5f3d
000003b0: 0f38 85be 838c 8c3d 4ab8 863d 89e4 bd3d
000003c0: 99f8 b23d 5771 cf3d 6482 51be 2b36 173c
000003d0: b47f 1c3e a3d2 2d3e da7c 80be 8da0 1dbc
000003e0: d2d5 09be 0434 e53d 7e02 a4bd b04c 123d
000003f0: 11b0 32bc 3bf1 923e d700 1bbe 414f debe

pre_layer.0.bias f4 [10]
0.056483626 0.1507751 -0.20729403 -0.113962345 0.15564871 0.20700452 -0.29685453 -0.02733036
0.18156908 0.044716164
00000000: 605b 673d ca64 1a3e e344 54be 1765 e9bd
00000010: 6062 1f3e fef8 533e 51fd 97be ebe3 dfbc
00000020: 3fed 393e 4c28 373d

pre_layer.1.weight f4 [10]
1.0187007 0.8440176 0.9969719 1.0669879 0.98528475 0.8877914 1.2771667 0.96826285
0.95717835 0.8788085
00000000: c964 823f 8a11 583f 8d39 7f3f 0f93 883f
00000010: 9f3b 7c3f 4c46 633f 337a a33f 13e0 773f
00000020: a409 753f 98f9 603f

pre_layer.1.bias f4 [10]
0.1806325 0.41572854 0.09922192 -0.124515 -0.027044613 -0.045173887 0.06008534 0.34463745
0.29535088 0.2709301
00000000: baf7 383e 5fda d43e dd34 cb3d b801 ffbd
00000010: aa8c ddbc 4108 39bd 0c1c 763d 5274 b03e
00000020: 3b38 973e 5ab7 8a3e

pre_layer.1.running_mean f4 [10]
0.0859057 -0.020278493 -0.25029233 0.08379959 0.054153647 0.21116643 -0.65855557 0.018539634
0.17660342 0.04179556
00000000: 54ef af3d 151f a6bc 5126 80be 1f9f ab3d
00000010: 37d0 5d3d 033c 583e 1997 28bf 6ee0 973c
00000020: 87d7 343e d231 2b3d

pre_layer.1.running_var f4 [10]
0.07642068 0.10433403 0.2049126 0.19854493 0.15528478 0.20073152 0.13693732 0.13627902
0.12031732 0.08345604
00000000: 7282 9c3d 14ad d53d 9cd4 513e 5d4f 4b3e
00000010: f902 1f3e 908c 4d3e 4c39 0c3e ba8c 0b3e
00000020: ed68 f63d 00eb aa3d

pre_layer.2.weight f4 [10]
0.059502833 0.25968006 0.09554452 0.28253198 0.26033852 0.3915838 0.066432916 -0.35073927
0.22474878 0.0023040953
00000000: 3eb9 733d c9f4 843e d8ac c33d 08a8 903e
00000010: 174b 853e ac7d c83e fb0d 883d 1994 b3be
00000020: 8b24 663e 4e00 173b

pre_layer.4.weight f4 [16, 10, 3, 3]
-0.062118635 0.0752742 -0.31012547 -0.005900969 0.011473631 -0.17953986 0.2325487 0.103214085
0.03520201 -0.02646305 -0.18566656 -0.033496793 0.023078687 -0.11628957 -0.1158018 -0.072761945
-0.057465095 -0.067909546 -0.1046467 -0.18246885 0.034147616 0.090690844 -0.0725494 -0.16650577
-0.14797375 0.04332985 0.003416772 0.022190664 -0.19466223 0.1121498 -0.051286418 -0.0051930435
-0.13231362 0.222514 -0.15190282 -0.0041210386 0.09461652 -0.11877879 -0.19558026 0.090425156
-0.00039875234 0.13010801 0.033096474 0.086525634 -0.20984516 0.03896079 -0.26200527 0.0012660206
0.12783405 0.056788564 -0.019136675 -0.047774777 -0.13335215 0.06523719 0.07560696 0.24121542
-0.027573416 0.045331467 0.00045962632 0.08092137 -0.28210276 0.16916133 -0.2623677 -0.041875944
0.19933891 -0.055594005 -0.065181434 -0.0050562588 0.07974021 0.008454747 -0.013615783 -0.08377536
0.045094967 -0.08234749 0.11591985 0.13353884 0.22214478 0.06093855 -0.017626897 -0.29947063
0.1992605 0.028408125 -0.06836869 -0.033930548 0.044786308 -0.046974868 0.100887604 -0.17263578
0.026230263 -0.1121847 -0.025972074 -0.118046924 0.11534864 0.17940457 -0.013096449 0.064950265
-0.15803534 -0.012700649 0.14463735 0.11056007 -0.17515251 -0.28054953 0.0997558 -0.088444576
0.03642111 -0.066952944 0.091787666 0.22337733 0.0034589155 -0.08916585 -0.24555962 -0.17593311
-0.13155499 0.030795379 -0.099186935 -0.1005091 -0.09135841 0.12984133 0.0035144088 -0.012109849
0.22357364 -0.09442033 -0.3759261 -0.03158075 -0.23222722 -0.14121321 -0.10031432 -0.07881938
-0.030893108 0.037205428 0.1967723 0.044660926 -0.06599589 0.20069253 0.06374833 -0.121972024
-0.05461441 0.008920802 0.0036569927 0.074447535 -0.0031890525 -0.09814987 0.11902335 -0.06828946
0.0673062 -0.21417204 -0.25282627 -0.04283222 0.01579793 -0.03415248 -0.105889484 0.06788161
0.08190987 0.045909572 0.011410163 0.17193787 -0.085428365 0.031014223 -0.0044087367 0.043384768
-0.06511234 -0.0153422 0.09125125 -0.085491635 -0.27478692 -0.058113143 -0.25141284 -0.25887862
-0.043647405 -0.28634936 -0.12633778 0.113769755 -0.015553264 0.03780113 0.14483845 0.102267765
0.076505184 0.104619995 -0.06863691 -0.010333155 0.08634701 0.2656051 -0.047690157 0.12874441
0.06052674 -0.14703918 -0.008765672 -0.03271938 0.039347373 -0.016678793 0.009716695 -0.06316767
-0.028785236 0.0014788987 -0.030031297 0.143856 -0.049248528 -0.032299526 -0.030963434 -0.1762213
-0.009458825 0.0528263 -0.014877737 0.1366133 -0.08255584 -0.23572843 -0.055716682 -0.11965354
-0.07894573 -0.11254085 -0.00028315833 0.14567687 -0.1544981 -0.14156634 -0.10425126 0.23421636
-0.13508117 -0.0057978583 -0.055337474 0.117228985 0.07749579 -0.14573711 0.064039245 0.121255934
0.28469616 0.20439906 -0.020323806 -0.0043065054 -0.020944875 -0.09988978 -0.13413028 0.03147982
-0.009312163 -0.2299595 -0.24423505 0.057194054 -0.15380773 -0.017071463 0.090091795 -0.16780132
0.102019385 -0.1729294 -0.036614444 0.18106239 -0.0529643 -0.040327027 -0.08458122 -0.0029263927
-0.24116473 0.1661726 -0.14716029 -0.30763647 -0.025850372 -0.06938028 0.012252994 -0.023520712
00000000: 1c70 7ebd 5c29 9a3d c4c8 9ebe ea5c c1bb
00000010: e5fb 3b3c 4cd9 37be 3f21 6e3e e861 d33d
00000020: fc2f 103d 0ac9 d8bc 601f 3ebe ef33 09bd
00000030: 840f bd3c 3a29 eebd 7e29 edbd 3704 95bd
00000040: 8560 6bbd 2914 8bbd 0251 d6bd 1dd9 3abe
00000050: 5fde 0b3d 1fbc b93d c894 94bd 7d80 2abe
00000060: 6e86 17be a47a 313d eceb 5f3b 32c9 b53c
00000070: 8955 47be cbae e53d b511 52bd 682a aabb
00000080: 397d 07be b6da 633e 6a8c 1bbe c709 87bb
00000090: 4ec6 c13d 4b42 f3bd 3146 48be d330 b93d
000000a0: a20f d1b9 093b 053e 2b90 073d 5a34 b13d
000000b0: a6e1 56be 5995 1f3d 8e25 86be 9af0 a53a
000000c0: eee6 023e 209b 683d 84c4 9cbc 7caf 43bd
000000d0: 778d 08be 139b 853d d2d7 9a3d 2d01 773e
000000e0: a5e1 e1bc 7dad 393d 00fa f039 1aba a53d
000000f0: c66f 90be a138 2d3e 0f55 86be 1c86 2bbd
00000100: 801f 4c3e 8ab6 63bd d87d 85bd f9ae a5bb
00000110: d64e a33d c785 0a3c bc14 5fbc 6a92 abbd
00000120: 80b5 383d cda5 a8bd 6367 ed3d 68be 083e
00000130: ec79 633e b39a 793d 4866 90bc 3754 99be
00000140: f20a 4c3e 28b8 e83c e204 8cbd c2fa 0abd
00000150: d971 373d b868 40bd 299e ce3d 6fc7 30be
00000160: d9e0 d63c 18c1 e5bd 63c3 d4bc 96c2 f1bd
00000170: e83b ec3d d5b5 373e 7d92 56bc a504 853d
00000180: 04d4 21be 6216 50bc d01b 143e 516d e23d
00000190: 2e5b 33be 30a4 8fbe c54c cc3d 6e22 b5bd
000001a0: 4d2e 153d a01e 89bd 2cfb bb3d 07bd 643e
000001b0: f9ae 623b 969c b6bd fb73 7bbe cf27 34be
000001c0: 5ab6 06be 9746 fc3c 8522 cbbd b7d7 cdbd
000001d0: 1e1a bbbd 20f5 043e ff51 663b 6368 46bc
000001e0: 7df0 643e 725f c1bd 6379 c0be d15a 01bd
000001f0: f9cc 6dbe 329a 10be 9871 cdbd 0e6c a1bd
00000200: 8b13 fdbc b864 183d ae7e 493e 60ee 363d
00000210: da28 87bd 5882 4d3e 7c8e 823d 78cc f9bd
00000220: 5cb3 5fbd 8e28 123c 28aa 6f3b f377 983d
00000230: 6cff 50bb cd02 c9bd 84c2 f33d 58db 8bbd
00000240: d5d7 893d ea4f 5bbe 7272 81be d770 2fbd
00000250: a96a 813c 79e3 0bbd 96dc d8bd 8305 8b3d
00000260: 5dc0 a73d ad0b 3c3d b1f1 3a3c 7b10 303e
00000270: 11f5 aebd 8a11 fe3c 2a77 90bb 3ab4 313d
00000280: 9e59 85bd da5d 7bbc efe1 ba3d 3d16 afbd
00000290: dfb0 8cbe 0c08 6ebd 2fb9 80be bd8b 84be
000002a0: 9fc7 32bd 629c 92be b15e 01be 1e00 e93d
000002b0: 1ed3 7ebc 5cd5 1a3d 8850 143e c371 d13d
000002c0: c0ae 9c3d 0243 d63d 8291 8cbd 654c 29bc
000002d0: b4d6 b03d 64fd 873e c156 43bd 93d5 033e
000002e0: e3ea 773d 7091 16be e59d 0fbc c204 06bd
000002f0: b62a 213d f7a1 88bc c632 1f3c 0d5e 81bd
00000300: 04cf ebbc 9bd7 c13a 3204 f6bc fd4e 133e
00000310: d3b8 49bd 824c 04bd 07a7 fdbc 5b73 34be
00000320: 30f9 1abc 6460 583d c0c1 73bc 5be4 0b3e
00000330: 0913 a9bd cb62 71be 2d37 64bd ea0c f5bd
00000340: 4dae a1bd d17b e6bd de74 94b9 512c 153e
00000350: c034 1ebe c4f6 10be af81 d5bd 6ad6 6f3e
00000360: b852 0abe f6fb bdbb 8ca9 62bd c015 f03d
00000370: 1db6 9e3d 1c3c 15be 0227 833d 0855 f83d
00000380: b2c3 913e fd4d 513e 1c7e a6bc 961d 8dbb
00000390: 9694 abbc 0393 ccbd 7359 09be fcf0 003d
000003a0: 0b92 18bc 817a 6bbe c118 7abe 5044 6a3d
000003b0: c67f 1dbe 74d9 8bbc 0c82 b83d 1cd4 2bbe
000003c0: 8aef d03d 6814 31be 07f9 15bd 6b68 393e
000003d0: 18f1 58bd f42d 25bd eb38 adbd b9c8 3fbb
000003e0: e3f3 76be 2629 2a3e 30b1 16be 8782 9dbe
000003f0: 29c4 d3bc 4017 8ebd c8c0 483c 82ae c0bc

pre_layer.4.bias f4 [16]
-0.051201202 -0.07496871 0.09619987 0.023306333 -0.0248713 0.053219214 0.013459494 -0.11798766
0.020458207 0.09151004 0.015358743 -0.10359607 0.00865471 0.023893654 0.0315545 0.012743467
00000000: 5ab8 51bd 3289 99bd 7004 c53d ecec be3c
00000010: e6be cbbc 64fc 593d 3685 5c3c 84a3 f1bd
00000020: f897 a73c 9e69 bb3d 3da3 7b3c 2d2a d4bd
00000030: 7ccc 0d3c a0bc c33c 4b3f 013d fac9 503c

pre_layer.5.weight f4 [16]
0.97435653 1.0827265 1.0645821 0.98513174 0.99961156 1.1228094 1.0804967 0.8920969
0.81939393 1.0156808 0.9277341 1.0072881 1.0163356 1.0007099 1.0160366 1.0814792
00000000: 6e6f 793f c896 8a3f 3a44 883f 9831 7c3f
00000010: 8be6 7f3f 38b8 8f3f b74d 8a3f 7660 643f
00000020: cdc3 513f d401 823f fb7f 6d3f d1ee 803f
00000030: 4917 823f 4317 803f 7d0d 823f e96d 8a3f

pre_layer.5.bias f4 [16]
-0.04666147 -0.23250908 0.06773295 -0.13551843 -0.26623204 -0.38392836 -0.15393543 -0.16641657
0.2557941 0.18281218 0.16232586 0.22875558 -0.08205468 0.05622485 -0.11156711 -0.07692937
00000000: 1920 3fbd dc16 6ebe 93b7 8a3d 58c5 0abe
00000010: 914f 88be 4292 c4be 40a1 1dbe 1b69 2abe
00000020: 72f7 823e 1e33 3b3e c038 263e e73e 6a3e
00000030: 490c a8bd 074c 663d 4c7d e4bd 258d 9dbd

pre_layer.5.running_mean f4 [16]
-1.0616746 -1.556197 -0.96761316 -0.7069066 -1.3286166 -1.3701426 -1.8749263 0.2841739
1.178476 -0.07918009 0.19747905 -0.24628745 -0.14859977 -0.32560855 -0.7468109 -0.5198463
00000000: f4e4 87bf 7731 c7bf 7fb5 77bf d5f7 34bf
00000010: 1c10 aabf d560 afbf 96fd efbf 3e7f 913e
00000020: 4dd8 963f 2c29 a2bd f337 4a3e c732 7cbe
00000030: 8a2a 18be 2ab6 a6be 002f 3fbf a614 05bf

pre_layer.5.running_var f4 [16]
0.88358474 1.2774031 0.7416683 1.5764139 1.0280526 1.358656 1.7780381 0.8550785
0.7597927 1.8286828 0.9164278 1.0194451 1.0565922 1.1121641 0.89820266 1.119078
00000000: 9c32 623f f281 a33f f9dd 3d3f eec7 c93f
00000010: 3a97 833f 71e8 ad3f c196 e33f 6de6 5a3f
00000020: c681 423f 4712 ea3f 039b 6a3f 2d7d 823f
00000030: 6a3e 873f 655b 8e3f 9cf0 653f f33d 8f3f

pre_layer.6.weight f4 [16]
-0.0059423237 -0.04153135 0.21907766 -0.16611798 0.07410537 -0.08822225 -0.030032704 -0.19813776
-0.2676514 0.13627262 -0.12921149 -0.27212813 -0.20469962 0.069783434 -0.0020991524 -0.14315653
00000000: d3b7 c2bb c71c 2abd e555 603e d51a 2abe
00000010: 8ec4 973d dead b4bd 2507 f6bc a0e4 4abe
00000020: 9b09 89be 0d8b 0b3e 0450 04be 6154 8bbe
00000030: c79c 51be 9eea 8e3d ef91 09bb a097 12be

pre_layer.7.weight f4 [32, 16, 3, 3]
-0.28365946 -0.06777112 -0.0244482 0.048813637 -0.2068134 -0.24091348 -0.08911482 -0.17659521
-0.16074385 -0.070739016 -0.26926067 0.028834965 -0.12504707 0.0013928219 0.122409016 0.008252183
0.24535492 0.1936842 0.034057666 0.07462099 0.013467226 -0.027830148 0.081720814 0.2308255
-0.0064127645 0.01658466 -0.0155241955 0.066656224 0.07776745 0.11160935 -0.078941315 0.008597571
-0.09931404 -0.24936289 -0.19000393 -0.2583964 -0.077303864 -0.06934082 -0.1131775 -0.038549762
-0.029174877 -0.09094239 -0.086789444 -0.1549975 -0.08817557 -0.042856134 -0.02468942 -0.09456206
-0.40481555 -0.22317223 -0.058291666 -0.10272696 0.04497406 0.07596303 0.12761751 -0.07173601
-0.051441956 -0.12664624 -0.05674461 0.106958725 -0.041657493 -0.121491306 -0.04142942 0.1616407
-0.22526966 0.113247186 0.034493648 0.13059704 0.139395 0.07604461 -0.089590654 -0.023132926
-0.013091833 0.024033118 -0.072339304 0.010773556 -0.032096013 -0.08105252 -0.058713328 0.013777293
0.17040958 0.066955745 0.053012136 0.22724202 -0.0054049045 -0.16961557 -0.24375436 0.040840656
0.025715766 0.0058236024 -0.0050892546 0.2380865 0.06883536 -0.117089145 -0.046572182 0.064391434
0.19054687 -0.03631266 -0.08139358 0.07657096 0.009896436 0.07688353 0.26485312 0.1586882
0.14877969 0.0044776765 0.0021070535 -0.06980055 -0.062982805 -0.29209962 -0.16335653 0.057077084
-0.071321994 0.16359343 0.1472169 0.09430386 0.087962426 0.006014243 0.15229186 -0.05637454
-0.099701844 -0.07751773 0.03465329 0.22102621 0.11625019 0.077944815 -0.0126053225 -0.12769341
-0.107597336 -0.1677787 -0.06875114 -0.18553656 -0.032540865 -0.29012868 -0.1304979 -0.015949422
-0.071835354 -0.14518292 0.028637964 -0.05317565 0.21525775 -0.008998715 0.15518136 0.09551589
0.044754133 -0.03282725 -0.2034554 0.06684736 -0.056263186 -0.17233944 0.19012171 -0.13672987
-0.07994707 0.12957901 0.013223383 0.22030647 0.024262166 0.18017697 -0.07875315 0.05025658
-0.004958421 -0.08747062 -0.51015717 -0.14864853 0.0007247651 -0.08064207 -0.038102314 -0.0076912525
0.060769845 -0.109245434 -0.100996576 -0.3112319 0.09380896 0.06550947 -0.22001949 0.018633781
0.05833621 -0.14574385 0.0732401 0.018301029 0.07748282 -0.094077334 -0.18754226 0.056261458
-0.019229531 0.0676386 0.22733325 0.15460551 0.013477617 -0.22386116 0.03419644 0.07106516
-0.04569914 0.04483097 0.03349028 0.10158256 -0.06763519 0.008540059 -0.013448574 0.06183786
0.17495094 0.09110631 0.041958597 0.10719098 0.10820004 0.17442837 0.04600307 -0.048426744
0.010872411 0.06589094 -0.08401124 -0.057338078 0.024967616 -0.060618803 -0.0283521 0.026143271
0.002687404 0.02128057 0.10237616 -0.009153794 0.061448723 -0.019917764 0.041629203 -0.021248203
-0.020911884 0.054760676 -0.08735569 0.32169363 -0.010103385 -0.021791333 0.26824197 -0.069797575
-0.085426435 0.16136372 -0.068095766 -0.14446606 -0.08104135 -0.027156794 -0.16099752 -0.15846774
-0.06503146 -0.23298843 -0.1423755 -0.07115966 0.05763019 -0.027792633 -0.054643642 -0.08323685
-0.004127295 -0.13846761 -0.07602215 -0.06621578 0.13510317 0.009987539 0.07933722 0.053892437
00000000: d03b 91be 96cb 8abd 9747 c8bc cff0 473d
00000010: e4c6 53be 06b2 76be d581 b6bd 60d5 34be
00000020: 099a 24be 9edf 90bd 89dc 89be 4e37 ec3c
00000030: 570c 00be 598f b63a 94b1 fa3d 2a34 073c
00000040: 523e 7b3e 2755 463e 0d80 0b3d e4d2 983d
00000050: a4a5 5c3c 0dfc e3bc 3e5d a73d 855d 6c3e
00000060: 2b22 d2bb 8edc 873c 3259 7ebc 0f83 883d
00000070: 8a44 9f3d 7193 e43d fcab a1bd d4dc 0c3c
00000080: 2965 cbbd fc58 7fbe 6490 42be 884c 84be
00000090: 7d51 9ebd 8f02 8ebd 9bc9 e7bd 5be6 1dbd
000000a0: 2700 efbc 0140 babd aabe b1bd aab7 1ebe
000000b0: 6595 b4bd ea89 2fbd 7741 cabc c1a9 c1bd
000000c0: fc43 cfbe 4387 64be 3ec3 6ebd 8362 d2bd
000000d0: b836 383d 8192 9b3d 2aae 023e 54ea 92bd
000000e0: cdb4 52bd 8daf 01be 096d 68bd 2d0d db3d
000000f0: 0ca1 2abd 6fd0 f8bd e5b1 29bd 2485 253e
00000100: 17ad 66be 24ee e73d 3649 0d3d 3bbb 053e
00000110: 90bd 0e3e 47bd 9b3d 4e7b b7bd 4381 bdbc
00000120: 217f 56bc 1ae1 c43c a126 94bd 9283 303c
00000130: 1c77 03bd ddfe a5bd 637d 70bd 28ba 613c
00000140: d97f 2e3e 1820 893d 4123 593d 22b2 683e
00000150: a01b b1bb b4af 2dbe be9a 79be 8848 273d
00000160: dfa9 d23c ebd3 be3b c3c3 a6bb f3cc 733e
00000170: 8ef9 8c3d 6fcc efbd 79c2 3ebd a8df 833d
00000180: b81e 433e 95bc 14bd adb1 a6bd 3cd1 9c3d
00000190: a924 223c 1d75 9d3d d49a 873e 297f 223e
000001a0: b459 183e 79b9 923b 7e16 0a3b 97f3 8ebd
000001b0: 21fd 80bd 158e 95be ef46 27be a9c9 693d
000001c0: 4411 92bd 0985 273e 07c0 163e 6222 c13d
000001d0: a525 b43d 2013 c53b 66f2 1b3e fde8 66bd
000001e0: 7b30 ccbd 9ec1 9ebd 9cf0 0d3d b254 623e
000001f0: 9414 ee3d 88a1 9f3d 8e86 4ebc 10c2 02be
00000200: fe5b dcbd 2ece 2bbe 66cd 8cbd 4cfd 3dbe
00000210: 9249 05bd bf8b 94be 3ea1 05be 5da8 82bc
00000220: 6a1e 93bd d5aa 14be 2a9a ea3c b6ce 59bd
00000230: 876c 5c3e 596f 13bc dde7 1e3e d69d c33d
00000240: 1c50 373d de75 06bd 9d56 50be 45e7 883d
00000250: 3a74 66bd c079 30be 44af 423e ea02 0cbe
00000260: 4abb a3bd 5cb0 043e e3a6 583c 0598 613e
00000270: 73c1 c63c 5080 383e 5549 a1bd d8d9 4d3d
00000280: 407a a2bb cc23 b3bd a999 02bf 5237 18be
00000290: 2afe 3d3a ab27 a5bd 2c11 1cbd e706 fcbb
000002a0: cde9 783d 12bc dfbd 4bd7 cebd ca59 9fbe
000002b0: e91e c03d d429 863d ca4c 61be dfa5 983c
000002c0: f3f1 6e3d e03d 15be e8fe 953d 0aec 953c
000002d0: 50af 9e3d 9eab c0bd 140b 40be 6a72 663d
000002e0: 4087 9dbc 1b86 8a3d 0cca 683e e850 1e3e
000002f0: 39d1 5c3c dc3b 65be 9111 0c3d 9c8a 913d
00000300: 052f 3bbd aea0 373d 1b2d 093d 840a d03d
00000310: 5284 8abd 9beb 0b3c 6857 5cbc b249 7d3d
00000320: 5726 333e f295 ba3d c7dc 2b3d f286 db3d
00000330: fc97 dd3d 5a9d 323e b76d 3c3d 1f5b 46bd
00000340: 3222 323c d4f1 863d 160e acbd 55db 6abd
00000350: e388 cc3c 6c4b 78bd aa42 e8bc 6a2a d63c
00000360: 281f 303b 9754 ae3c 98aa d13d cbf9 15bc
00000370: a8b1 7b3d 942a a3bc 6283 2a3d b610 aebc
00000380: 664f abbc bb4c 603d 8ae7 b2bd 07b5 a43e
00000390: ab88 25bc bd83 b2bc 0357 893e 08f2 8ebd
000003a0: 0ef4 aebd 883c 253e cb75 8bbd e9ee 13be
000003b0: 02f9 a5bd ed77 debc 89dc 24be 5e45 22be
000003c0: 372f 85bd 8594 6ebe e2ca 11be 28bc 91bd
000003d0: a20d 6c3d 60ad e3bc 03d2 5fbd 1578 aabd
000003e0: 433e 87bb 74ca 0dbe 80b1 9bbd 249c 87bd
000003f0: 7c58 0a3e c6a2 233c 8d7b a23d 51be 5c3d

pre_layer.7.bias f4 [32]
-0.0078073805 -0.009686609 -0.03458001 0.037422422 0.029041167 0.027601844 0.027339427 0.06222876
0.0002499733 0.0842345 0.05084649 0.083994605 -0.011057467 -0.031023607 0.035889134 0.01163149
0.10032597 -0.027538616 -0.00979598 0.07639871 0.02444884 0.0079876 -0.04318106 -0.0763586
-0.019078536 -0.05590629 0.071485996 -0.04259234 0.0467853 0.028476378 -0.061691828 0.036346175
00000000: 0ed5 ffbb 95b4 1ebc c5a3 0dbd 4148 193d
00000010: bee7 ed3c 431d e23c eff6 df3c 96e3 7e3d
00000020: d90e 8339 2383 ac3d 6944 503d 5d05 ac3d
00000030: 612a 35bc 3825 febc 7c00 133d 0192 3e3c
00000040: b477 cd3d aa98 e1bc 517f 20bc ed76 9c3d
00000050: ef48 c83c 6cde 023c a0de 30bd e661 9cbd
00000060: 974a 9cbc fefd 64bd 4067 923d 4e75 2ebd
00000070: f1a1 3f3d 4b47 e93c 92b0 7cbd badf 143d

pre_layer.8.weight f4 [32]
1.8335137 1.6052893 1.889421 2.3147337 2.0283854 1.8943634 0.87222475 1.936293
2.2743032 1.7550586 2.184522 1.9741297 2.0851536 1.9494759 1.766492 1.8119968
2.2358239 2.0481997 2.0477905 2.1459658 2.2390845 2.3191175 2.290571 1.9479796
2.2501671 2.4003808 2.4843729 2.0735545 1.6853741 2.2250009 2.175131 1.9139253
00000000: 94b0 ea3f 1f7a cd3f 8cd8 f13f 9924 1440
00000010: 11d1 0140 807a f23f 1f4a 5f3f 73d8 f73f
00000020: 2f8e 1140 c3a5 e03f 35cf 0b40 48b0 fc3f
00000030: 2873 0540 6d88 f93f 691c e23f 83ef e73f
00000040: bd17 0f40 b415 0340 000f 0340 8157 0940
00000050: 294d 0f40 6c6c 1440 b798 1240 6557 f93f
00000060: bd02 1040 d79f 1940 f7ff 1e40 1eb5 0440
00000070: 57ba d73f 6a66 0e40 5935 0b40 81fb f43f

pre_layer.8.bias f4 [32]
-0.0067400695 0.49952224 -0.038482152 0.18747765 -0.21974452 0.17279588 0.66487384 0.45894593
-0.017152688 0.008153214 -0.2717751 0.33127025 0.124745235 -0.086853854 0.06816876 0.0787239
0.110334076 -0.023581188 -0.077355675 0.08345253 0.0709217 0.050251212 0.24625242 -0.09292969
0.2800088 0.045015976 0.32847086 0.02268751 0.042605996 -0.018372448 0.2118205 0.065917484
00000000: cddb dcbb 61c1 ff3e 769f 1dbd 24fa 3f3e
00000010: b504 61be 67f1 303e 2c35 2a3f f6fa ea3e
00000020: cb83 8cbc 0f95 053c 1b26 8bbe 419c a93e
00000030: 6e7a ff3d 6fe0 b1bd 109c 8b3d ff39 a13d
00000040: d5f6 e13d 562d c1bc a76c 9ebd 29e9 aa3d
00000050: 653f 913d 37d4 4d3d 9829 7c3e ec51 bebd
00000060: 505d 8f3e ac62 383d 552d a83e 28db b93c
00000070: a083 2e3d d181 96bc 79e7 583e bfff 863d

pre_layer.8.running_mean f4 [32]
-0.3340924 -1.0341277 -0.5055592 0.26810142 -0.09235822 -0.4225543 -0.3200238 0.5147001
-0.4357599 -0.18062034 0.3782608 0.18889192 -0.095584705 0.43477646 -0.6747972 0.33523557
-0.7806449 -0.037317283 -0.20835944 -1.2148511 0.5315979 0.11456645 -0.22945972 0.85420334
-0.41754007 -0.26972312 -1.3152616 -0.6511922 0.1836744 0.31825775 0.047130026 -0.158973
00000000: 290e abbe 4c5e 84bf 546c 01bf 9744 893e
00000010: 4e26 bdbd 0a59 d8be 29da a3be 63c3 033f
00000020: ec1b dfbe 8af4 38be 66ab c13e e26c 413e
00000030: eac1 c3bd 059b de3e 82bf 2cbf ffa3 ab3e
00000040: 58d8 47bf 02da 18bd 2d5c 55be 3e80 9bbf
00000050: cd16 083f d1a1 ea3d 7df7 6abe 12ad 5a3f
00000060: d0c7 d5be 2619 8abe 7e5a a8bf 88b4 26bf
00000070: 2415 3c3e aef2 a23e 6a0b 413d d1c9 22be

pre_layer.8.running_var f4 [32]
1.1869775 1.6223367 0.72762 0.75893414 1.0041633 0.87101024 1.1152972 1.146507
0.60521406 0.6860411 0.46860975 0.97092015 1.0791365 0.8768822 0.6273768 2.0114017
0.61100316 0.4699385 0.8362911 0.85557234 0.6062961 0.7465302 1.0389928 0.5091024
0.6603793 0.5799024 0.9256395 0.742528 2.160702 0.6102389 0.732102 0.9893322
00000000: e1ee 973f bba8 cf3f 4e45 3a3f 8249 423f
00000010: 6c88 803f 87fa 5e3f 0fc2 8e3f bec0 923f
00000020: 4fef 1a3f 64a0 2f3f 9eed ef3e 398e 783f
00000030: 2521 8a3f 5a7b 603f c49b 203f ceba 0040
00000040: b46a 1c3f c79b f03e 2c17 563f ca06 5b3f
00000050: 3936 1b3f 9a1c 3f3f b7fd 843f 8954 023f
00000060: 9e0e 293f 7c74 143f b6f6 6c3f 5116 3e3f
00000070: f148 0a40 9e38 1c3f 096b 3b3f e044 7d3f

pre_layer.9.weight f4 [32]
-0.63875264 0.11013087 -0.32390943 -0.35716543 -0.30555093 -0.5983352 -0.16150618 -0.012165548
-0.32262027 -0.39461 -0.41751745 -0.9521224 -0.4894057 -0.090254284 -0.4123139 -0.0038786805
-0.3380736 -0.48458326 -0.5704677 -0.42291546 -0.44333366 -0.29286787 -0.17279172 -0.40041357
-0.49476618 -0.25802404 -0.3122213 -0.57206684 -0.14450829 -0.2941354 -0.21744499 -0.35519773
00000000: 4b85 23bf 4b8c e13d 75d7 a5be 63de b6be
00000010: 2c71 9cbe 7f2c 19bf e061 25be 0252 47bc
00000020: 7c2e a5be 520a cabe d9c4 d5be 4bbe 73bf
00000030: 6293 fabe 3dd7 b8bd cf1a d3be 7631 7ebb
00000040: fc17 adbe 4c1b f8be 2c0a 12bf 6088 d8be
00000050: a1fc e2be c7f2 95be 50f0 30be 0203 cdbe
00000060: fe51 fdbe ba1b 84be 78db 9fbe f972 12bf
00000070: fbf9 13be ea98 96be e6a9 5ebe 7adc b5be

conv4_1.weight f4 [1, 32, 1, 1]
1.0535553 -0.7003472 1.1538707 -1.1449447 1.170579 1.1143166 0.39759275 -0.79746014
-1.0163922 1.0513581 -1.0460484 1.1991109 1.2900593 -1.1156785 1.1106229 1.1562043
-1.0667006 -0.8746271 1.2181052 -1.116914 -0.9583154 -1.1659492 -1.1201968 -0.99876845
-0.95964754 -1.3616662 -1.1239208 1.1667913 1.0209827 -1.1861405 -1.1049187 1.1326017
00000000: e6da 863f f449 33bf 09b2 933f 8c8d 92bf
00000010: 88d5 953f eda1 8e3f 4791 cb3e 5926 4cbf
00000020: 2419 82bf e792 863f eae4 85bf 777c 993f
00000030: aa20 a53f 8ece 8ebf e428 8e3f 81fe 933f
00000040: a589 88bf 90e7 5fbf dfea 9b3f 0af7 8ebf
00000050: 2854 75bf d33d 95bf 9c62 8fbf 4aaf 7fbf
00000060: 76ab 75bf 144b aebf a3dc 8fbf 6b59 953f
00000070: 90af 823f 74d3 97bf fa6d 8dbf 18f9 903f

conv4_2.weight f4 [4, 32, 1, 1]
-0.0003404537 0.08500588 0.00018267789 0.0046709236 0.0048127756 0.0024235926 0.0006809455 -0.054756656
-0.0060631963 0.008375217 0.0010848516 -0.0006535817 0.007717972 -0.01685488 -0.0059657875 -0.030747194
-3.3033444e-05 -0.0017943034 -0.0025682044 -0.0021379143 -0.0030821636 -0.0002545253 -0.010596229 0.003677888
-0.0025078072 -0.00024686576 7.120311e-05 0.0017218719 0.023001028 0.0015494357 4.037127e-05 0.013975647
0.052934337 0.008041126 0.0045286026 0.00799297 -0.0016297839 0.0011933078 -0.16058166 -0.014660873
-0.0066158255 0.0022511124 0.00029885012 -0.008872513 0.005308033 -0.031981334 -0.0019277591 -0.060699955
-0.0027745855 -0.0007565339 0.0014371848 -0.0034380383 0.0010320361 -0.020870518 0.016526025 0.0039219693
5.2155927e-05 0.00028350623 0.004988092 0.0017804244 0.06187797 0.00026817183 -0.002194085 0.00036098936
0.00048318788 0.07080306 -0.009030815 0.006886338 0.007892493 0.004933518 0.004626594 -0.027724955
0.0010756706 0.0123195145 0.00030614852 0.0025306602 -0.002091574 0.021570494 -0.0127072735 0.033926364
-0.0021841615 -0.002314308 -0.006258177 0.0027508833 0.002822987 0.005663685 -0.027413197 -0.0009644795
-0.0057452377 -0.0031742211 0.0036415043 -0.0017083987 -0.04411106 9.303679e-06 0.0004641831 0.009784133
0.053297296 -0.009030876 -0.0077468804 0.011969907 0.0022663819 0.004012207 -0.15176675 0.021470703
0.0028420691 0.007966052 -0.00078522525 -0.0056400443 -0.0066563585 0.018763594 -0.010462383 0.023065507
-0.004937027 -0.0004144437 -0.0034599316 0.0031363135 0.007854539 -0.0124236215 -0.0049623526 -0.0025468408
-0.0041506626 -0.0033224039 0.00889028 -0.002298745 -0.025365474 -0.0014572785 -0.0014113594 -0.005443383
00000000: ec7e b2b9 9017 ae3d 398d 3f39 8c0e 993b
00000010: 7db4 9d3b 23d5 1e3b 7b81 323a 8448 60bd
00000020: c7ad c6bb 3538 093c 9431 8e3a 2055 2bba
00000030: 0be7 fc3b 3f13 8abc a77c c3bb 8ae1 fbbc
00000040: 648d 0ab8 d52e ebba 524f 28bb 401c 0cbb
00000050: 20fe 49bb cf71 85b9 ce9b 2dbc b908 713b
00000060: 065a 24bb c36d 81b9 e152 9538 6fb0 e13a
00000070: a76c bc3c 6f16 cb3a 5254 2938 1dfa 643c
00000080: add1 583d edbe 033c ac64 943b f2f4 023c
00000090: 799e d5ba c468 9c3a 856f 24be 2934 70bc
000000a0: 91c9 d8bb 6687 133b fcae 9c39 045e 11bc
000000b0: 02ef ad3b dcfe 02bd ddac fcba 84a0 78bd
000000c0: d2d5 35bb 2152 46ba eb5f bc3a b650 61bb
000000d0: 6345 873a a6f8 aabc 9661 873c dd83 803b
000000e0: 00c2 5a38 90a3 9439 2673 a33b 215d e93a
000000f0: c173 7d3d 6a99 8c39 a3ca 0fbb 2c43 bd39
00000100: 6154 fd39 3201 913d fcf5 13bc caa6 e13b
00000110: 844f 013c 59a9 a13b af9a 973b 721f e3bc
00000120: 84fd 8c3a cad7 493c 8f82 a039 6fd9 253b
00000130: ca12 09bb 9bb4 b03c 2b32 50bc 5ff6 0a3d
00000140: 2624 0fbb a5ab 17bb 6511 cdbb 2a48 343b
00000150: dd01 393b 6f96 b93b a491 e0bc 20d5 7cba
00000160: 8c42 bcbb 9806 50bb 4ea6 6e3b 59ec dfba
00000170: cdad 34bd ff16 1c37 9a5d f339 a14d 203c
00000180: 444e 5a3d 3df6 13bc 8bd9 fdbb 6e1d 443c
00000190: 9487 143b d578 833b be68 1bbe 54e3 af3c
000001a0: 0242 3a3b 0b84 023c 93d7 4dba 1fd0 b8bb
000001b0: 951d dabb 1cb6 993c 6a6a 2bbc e0f3 bc3c
000001c0: c9c6 a1bb b149 d9b9 05c0 62bb 9c8a 4d3b
000001d0: 53b0 003c 728c 4bbc 3b9b a2bb e6e8 26bb
000001e0: 4802 88bb b0bc 59bb 89a8 113c 8ba6 16bb
000001f0: 41cb cfbc 2702 bfba 5dfd b8ba 685e b2bb

conv4_2.bias f4 [4]
0.103943475 0.06635473 -0.11490575 0.09738792
00000000: 51e0 d43d fde4 873d b553 ebbd 5173 c73d
