param_rectify/r_net.pth (torch_old, 407436 bytes, 27 tensors)

pre_layer.0.weight f4 [28, 3, 3, 3]
-0.079564214 -0.23857243 -0.17541966 0.23315711 0.18665643 0.06764701 -0.054426316 -0.03906591
0.055378307 -0.04720583 -0.11031752 -0.14176631 0.3449195 0.18213004 0.020264642 -0.07883354
0.121522546 -0.12732838 -0.07572998 -0.23025799 0.14241591 -0.010260829 0.063108 -0.07681853
-0.056355357 -0.028921643 0.12137888 -0.05098874 0.106716566 0.09708804 0.23522979 0.13056251
-0.00371261 -0.2959774 -0.25538614 -0.0038913514 0.20616862 0.14218572 -0.061658297 0.030761603
-0.07182076 0.2202948 -0.2729072 0.021496471 -0.082622826 0.020792063 -0.09215772 0.055709146
0.0053042546 0.19718139 0.117840484 -0.17718232 -0.17042533 -0.07906597 -0.1996957 -0.024773706
0.12745525 -0.19665416 0.17129397 0.1543356 -0.23414077 0.019668035 0.1953411 -0.17362513
-0.032658618 0.16303988 -0.25777954 0.07014843 -0.059336845 0.022883965 0.13710316 0.03649162
0.017045483 -0.05288706 0.114330515 -0.051704235 -0.010732394 0.09615346 -0.11459697 -0.04099705
-0.05564936 -0.052007068 0.2752328 0.35164595 0.18368 0.3069722 -0.022775462 0.02060155
-0.033238947 0.052131843 -0.033705316 -0.18715914 0.09948875 0.13141714 -0.13255464 0.17016529
-0.010340673 -0.12709929 -0.34241915 0.2669606 0.2094981 0.00453321 -0.112339854 -0.021863325
-0.022041619 -0.21209185 0.05079143 0.047798637 0.25729582 0.06424645 0.013421808 -0.04375748
-0.107873335 -0.044687085 -0.16820717 -0.06347174 -0.3242381 0.13536483 -0.14978564 -0.0011033171
0.1476087 0.18271352 0.036412336 -0.2157317 -0.3023808 -0.20598865 -0.17390978 0.033032175
-0.06407627 0.014668101 0.12124163 0.1380412 0.10469162 0.021811942 -0.19729355 0.023677496
0.15037021 0.054588135 -0.121909834 -0.27266583 -0.11463597 -0.14554404 -0.056674294 0.07987636
-0.06618583 0.16144724 0.2542628 0.03587816 -0.3342476 0.10206794 0.044982005 -0.0015613345
0.038181923 -0.14823844 0.032292474 0.23240048 -0.009727906 -0.11705656 -0.18757974 0.18732938
0.18825777 -0.08665969 -0.01735936 0.1109723 0.16837798 0.115890905 0.050172728 0.30429086
-0.25022635 -0.06080546 -0.015064535 -0.10273583 -0.072929256 0.18831566 -0.28060105 0.080455214
0.220549 0.005156073 -0.18162556 0.09260392 0.028321885 0.2891812 0.09146796 -0.11365266
-0.07583735 0.0711119 -0.19521505 -0.16044097 0.28020993 0.07344315 0.024664672 -0.054029677
0.06742404 0.27982968 -0.029416366 0.22575425 0.26698345 -0.1230273 -0.10392753 0.08214157
-0.04801101 0.042379793 0.041755818 -0.186986 0.08553641 0.17575519 -0.20014362 -0.0076116147
0.1360858 -0.13084292 0.013330198 0.17505896 -0.14675038 -0.017776055 0.047535896 -0.23496859
0.2194216 0.115609296 -0.10982531 -0.054239523 0.07339476 -0.029380575 -0.1830186 -0.167224
-0.13083029 0.15469117 0.21834892 -0.021247987 -0.19620484 -0.10315491 -0.014682771 -0.12210693
0.0716486 0.2332682 0.19689666 0.11946391 0.09666372 0.03984506 -0.22420362 -0.15683655
0.07637388 -0.24877869 0.09369774 -0.023703307 -0.21070227 0.12624446 0.045022123 -0.32692254
0.094054125 -0.06868726 -0.17433572 -0.15658538 0.08057837 0.011822756 0.17977454 0.17728849
00000000: 90f2 a2bd 554c 74be 36a1 33be bdc0 6e3e
00000010: dd22 3f3e 848a 8a3d 21ee 5ebd 9303 20bd
00000020: 5dd4 623d e75a 41bd 27ee e1bd 302b 11be
00000030: 4a99 b03e 4c80 3a3e 0902 a63c 7b73 a1bd
00000040: d0e0 f83d 5f62 02be 5218 9bbd c0c8 6bbe
00000050: 7ad5 113e 091d 28bc c43e 813d 0953 9dbd
00000060: e0d4 66bd 15ed ecbc 7e95 f83d 92d9 50bd
00000070: 378e da3d 18d6 c63d 14e0 703e 2eb2 053e
00000080: 434f 73bb 5a8a 97be f9c1 82be 0b06 7fbb
00000090: de1d 533e 2299 113e 698d 7cbd c2ff fb3c
000000a0: c316 93bd f694 613e 7eba 8bbe 5e19 b03c
000000b0: 2836 a9bd 1e54 aa3c 30bd bcbd 462f 643d
000000c0: 50cf ad3b ebe9 493e 5a56 f13d 486f 35be
000000d0: fa83 2ebe 57ed a1bd 087d 4cbe 3af2 cabc
000000e0: a183 023e b55f 49be b067 2f3e 270a 1e3e
000000f0: 99c2 6fbe dc1e a13c 7f07 483e c9ca 31be
00000100: 0bc5 05bd edf3 263e aefb 83be fba9 8f3d
00000110: 310b 73bd 2777 bb3c c564 0c3e 3d78 153d
00000120: f8a2 8b3c 1aa0 58bd 1e26 ea3d d2c7 53bd
00000130: ecd6 2fbc 1bec c43d d1b1 eabd 86ec 27bd
00000140: 95f0 63bd 5d05 55bd 50eb 8c3e f00a b43e
00000150: 9c16 3c3e 762b 9d3e 9b93 babc 95c4 a83c
00000160: 9025 08bd 3388 553d 960e 0abd a5a6 3fbe
00000170: c2c0 cb3d 3792 063e 67bc 07be cf3f 2e3e
00000180: ed6b 29bc 5126 02be 9051 afbe 0faf 883e
00000190: ac86 563e 528b 943b 7012 e6bd b71a b3bc
000001a0: a090 b4bc 9b2e 59be ad0a 503d 81c8 433d
000001b0: 47bc 833e a593 833d 25e7 5b3c 0b3b 33bd
000001c0: b2ec dcbd ce09 37bd 803e 2cbe 79fd 81bd
000001d0: 8902 a6be 149d 0a3e 6861 19be 2e9d 90ba
000001e0: bc26 173e 4119 3b3e 1a25 153d c5e8 5cbe
000001f0: a8d1 9abe b0ee 52be 6815 32be bf4c 073d
00000200: 6b3a 83bd 7a52 703c 884d f83d ac5a 0d3e
00000210: 8f68 d63d f5ae b23c 5207 4abe 4ff7 c13c
00000220: a6fa 193e cf97 5f3d ddab f9bd db9a 8bbe
00000230: 43c6 eabd 7f09 15be 4e23 68bd 3896 a33d
00000240: 708c 87bd 6d52 253e bc2e 823e faf4 123d
00000250: 8022 abbe ff08 d13d 0d3f 383d b1a5 ccba
00000260: a664 1c3d d1cb 17be 1d45 043d 64fa 6d3e
00000270: cc61 1fbc 5abb efbd e714 40be 46d3 3f3e
00000280: a5c6 403e a37a b1bd 3735 8ebc 7245 e33d
00000290: 476b 2c3e 3658 ed3d eb81 4d3d 03cc 9b3e
000002a0: ab1d 80be 250f 79bd 3dd1 76bc 2a67 d2bd
000002b0: ef5b 95bd d2d5 403e f1aa 8fbe b4c5 a43d
000002c0: 99d7 613e 46f4 a83b 0dfc 39be 20a7 bd3d
000002d0: 4c03 e83c 8f0f 943e 8e53 bb3d bac2 e8bd
000002e0: 9d50 9bbd 1ea3 913d 74e6 47be a34a 24be
000002f0: ad77 8f3e 5d69 963d 910d ca3c 394e 5dbd
00000300: 9d15 8a3d d645 8f3e 97fa f0bc 1f2c 673e
00000310: 0eb2 883e bdf5 fbbd f5d7 d4bd d739 a83d
00000320: 31a7 44bd 6f96 2d3d 2608 2b3d 4279 3fbe
00000330: b72d af3d 2bf9 333e 73f2 4cbe da6a f9bb
00000340: 135a 0b3e b0fb 05be e766 5a3c a842 333e
00000350: bb45 16be 179f 91bc 00b5 423d 9b9b 70be
00000360: 0eb0 603e 91c4 ec3d 18ec e0bd 432a 5ebd
00000370: fe4f 963d 88af f0bc 3a69 3bbe c53c 2bbe
00000380: 60f8 05be 5d67 1e3e dc96 5f3e 4210 aebc
00000390: ece9 48be e242 d3bd 0190 70bc 3313 fabd
000003a0: 80bc 923d dcdd 6e3e 479f 493e 7fa9 f43d
000003b0: a1f7 c53d 9334 233d a295 65be c399 20be
000003c0: e969 9c3d d7bf 7ebe 9ae4 bf3d 702d c2bc
000003d0: 56c2 57be 3a46 013e 1e69 383d 6462 a7be
000003e0: 739f c03d e8ab 8cbd 1085 32be eb57 20be
000003f0: 4606 a53d 3cb4 413c d116 383e 1d8b 353e

pre_layer.0.bias f4 [28]
0.28135753 -0.15998727 -0.04033156 -0.15516192 -0.1797832 0.16611351 0.117257856 -0.0332669
0.08744181 -0.14917454 0.182648 0.062482554 -0.12147912 0.14786106 -0.013343402 0.12981509
0.17557333 0.09498503 0.08886153 0.009397699 0.11533578 -0.056847245 -0.19577019 -0.074383155
-0.0107319355 -0.11869677 -0.26172206 0.09823163
00000000: 180e 903e b4d3 23be b532 25bd c4e2 1ebe
00000010: 1619 38be a919 2a3e e324 f03d df42 08bd
00000020: b114 b33d 36c1 18be 1408 3b3e b5ed 7f3d
00000030: 0bca f8bd e468 173e 499e 5abc 3fee 043e
00000040: 7fc9 333e 8387 c23d 09fd b53d cef8 193c
00000050: 2a35 ec3d a8d8 68bd fb77 48be 3256 98bd
00000060: 00d5 2fbc 4b17 f3bd 6f00 86be aa2d c93d

pre_layer.1.weight f4 [28]
0.96556014 1.0974544 1.168908 0.688892 0.90026337 1.0423384 0.9263675 0.7820476
0.9273425 1.0431409 0.9290608 0.9797283 1.0595379 1.2401401 0.8696602 1.0151335
1.0156138 0.88972044 1.1239 0.84520864 0.81029403 1.0139074 0.9073016 1.0032402
1.0230153 0.8076938 1.2384099 0.85053056
00000000: f32e 773f 6379 8c3f c79e 953f 3a5b 303f
00000010: a977 663f 586b 853f 6c26 6d3f 4634 483f
00000020: 5166 6d3f a485 853f eed6 6d3f 79cf 7a3f
00000030: f09e 873f e9bc 9e3f 0da2 5e3f e5ef 813f
00000040: a2ff 813f b8c4 633f f5db 8f3f 985f 583f
00000050: 6e6f 4f3f b8c7 813f eb44 683f 2d6a 803f
00000060: 2af2 823f 05c5 4e3f 3784 9e3f 5fbc 593f

pre_layer.1.bias f4 [28]
0.1798414 0.2568911 0.1804481 -0.34418756 -0.22573915 0.31962237 -0.19300105 -0.16459271
0.27673733 -0.07429698 0.13814096 -0.083288305 0.07158797 0.39210677 0.2372147 0.08042368
0.0121671995 -0.2555417 -0.20590094 0.07675637 0.003679779 -0.29129422 -0.2858022 0.03617265
0.39818764 -0.43604168 0.055954564 0.103227235
00000000: 5828 383e 3b87 833e 63c7 383e 5a39 b0be
00000010: 2a28 67be 8ba5 a33e 11a2 45be fe8a 28be
00000020: 84b0 8d3e 0429 98bd d374 0d3e 0f93 aabd
00000030: b79c 923d 38c2 c83e 69e8 723e 2cb5 a43d
00000040: ef58 473c 5dd6 82be b2d7 52be 7232 9d3d
00000050: 7228 713b 8424 95be aa54 92be c629 143d
00000060: 40df cb3e db40 dfbe 9d30 653d cd68 d33d

pre_layer.1.running_mean f4 [28]
0.29130885 -0.15054174 -0.005396118 -0.052757736 -0.17216226 0.0835455 0.11436584 0.0799435
0.040086232 -0.26232493 0.18785974 0.07039707 -0.06366017 0.13709548 -0.059236 0.20564686
0.19412857 0.27195874 -0.18430175 -0.041075863 0.33476445 -0.006576378 -0.5307591 -0.13809647
-0.042552546 -0.17815176 -0.19702868 0.0072738077
00000000: 6f26 953e 9d27 1abe ebd1 b0bb 7f18 58bd
00000010: 4e4b 30be e719 ab3d a338 ea3d 6bb9 a33d
00000020: 7631 243d 744f 86be 4e5e 403e 572c 903d
00000030: 4360 82bd c262 0c3e 73a1 72bd 1795 523e
00000040: a4c9 463e 2d3e 8b3e 99b9 3cbe 2a3f 28bd
00000050: 3f66 ab3e a87e d7bb d4df 07bf 2969 0dbe
00000060: 944b 2ebd 6a6d 36be e3c1 49be 1f59 ee3b

pre_layer.1.running_var f4 [28]
0.034855712 0.06259704 0.08906354 0.2817009 0.21756995 0.047222752 0.21214099 0.16725199
0.04866556 0.04321116 0.059187185 0.053446237 0.096955664 0.094955586 0.02487721 0.06348438
0.027125737 0.04877816 0.0996143 0.07532316 0.36061347 0.05934339 0.20711842 0.046892986
0.06963266 0.39599615 0.08250664 0.043761685
00000000: ddc4 0e3d e032 803d f266 b63d 1a3b 903e
00000010: a8ca 5e3e a56c 413d 7d3b 593e 1b44 2b3e
00000020: 8a55 473d 2ffe 303d 436e 723d 71ea 5a3d
00000030: b190 c63d 1378 c23d 4acb cb3c 1904 823d
00000040: cb36 de3c 9ccb 473d 9502 cc3d 0743 9a3d
00000050: 54a2 b83e 0e12 733d da16 543e dc12 403d
00000060: 919b 8e3d 02c0 ca3e 3ef9 a83d 743f 333d

pre_layer.2.weight f4 [28]
0.31796506 0.17482981 0.17406976 -0.1703266 0.02647217 0.5078018 0.14775467 0.2289937
0.31252122 -0.038282335 0.46795687 0.19758965 0.06410996 0.5354877 0.14681467 0.09918804
0.38181117 0.0041088094 0.09206643 0.2580904 -0.027694814 -0.16441014 -0.2170461 0.122284755
0.4291705 -0.15621713 0.20863456 0.5158187
00000000: 51cc a23e 9606 333e 583f 323e 196a 2ebe
00000010: 2adc d83c 4cff 013f 004d 173e 537d 6a3e
00000020: c802 a03e f0cd 1cbd 0b98 ef3e f154 4a3e
00000030: 154c 833d b915 093f 9656 163e 1923 cb3d
00000040: c17c c33e 31a3 863b 538d bc3d 6d24 843e
00000050: 3ce0 e2bc 225b 28be 5541 5ebe 6e70 fa3d
00000060: 3cbc db3e 62f7 1fbe 4ca4 553e b20c 043f

pre_layer.4.weight f4 [48, 28, 3, 3]
0.048056684 -0.025168002 -0.021892568 -0.16888854 -0.0030459245 -0.057151135 -0.0782843 -0.026020529
-0.1794203 -0.04277545 -0.08888613 -0.018621482 -0.112999246 0.08016261 0.046039164 -0.11482364
-0.19971956 -0.06564137 -0.0032537577 -0.018032985 0.1108498 -0.023074143 -0.023824885 0.00832102
-0.12460338 -0.14608571 0.03523088 0.14876327 0.11764103 -0.0043188315 0.15340228 0.17945844
0.06862171 0.20018758 0.06664489 0.07965344 0.0065985797 0.024055319 -0.028394576 0.04837143
0.09219055 0.0532731 -0.039673757 -0.06171737 0.025403477 0.043747928 -0.0007013809 0.103292026
-0.051451378 0.111126594 0.076826535 -0.22008154 -0.13565913 0.020827705 -0.0054080724 0.05462188
0.09416822 -0.0969515 -0.0009224504 0.08479541 0.09759184 -0.07545808 0.0890718 -0.088800505
-0.03649365 0.034490973 -0.0038381903 0.041072674 0.14481276 0.16598682 0.14930771 0.058517355
-0.15759496 -0.0057248264 -0.10738275 -0.22074053 0.037790984 0.018663872 -0.080907084 -0.069449656
-0.0246804 0.06817649 0.12475634 0.042447545 0.09394762 0.008539902 0.17768292 -0.03840602
0.1284891 0.24697976 -0.028802682 -0.027579168 0.08578003 -0.09955583 -0.0047279187 0.26146522
-0.057666607 -0.12442211 0.06983901 -0.16616781 -0.005426386 0.13834436 -0.17693678 -0.08392962
0.11857669 -0.01950188 -0.30470368 0.03476207 0.048570946 -0.03424906 0.072080165 -0.023285802
0.17866787 0.054094575 -0.010079283 0.021694982 0.05193193 0.046151258 0.1394695 0.17882442
-0.07601484 -0.029680625 0.116866834 -0.04803661 -0.06511977 -0.160664 -0.117962144 0.11056237
-0.09187944 -0.10658253 0.09596049 0.0568461 -0.09596617 -0.13801314 0.050968304 -0.073357284
0.050796308 -0.023536107 -0.026012888 -0.05496666 0.061885715 -0.09397051 -0.20171605 -0.065710954
-0.09785591 -0.014451878 -0.07514452 0.17701104 -0.01921505 -0.10127566 -0.059099462 0.08636419
0.049323577 0.22244327 0.10330647 0.034666233 0.09955234 0.055536274 0.070090465 0.25660497
0.30094647 0.19561931 0.08373644 0.06510321 -0.029725483 0.19604455 0.17211512 0.14387733
0.028840449 0.06585228 0.16517028 0.08086167 0.10852147 0.15092814 0.09218188 0.016288608
-0.00030882555 0.1619056 0.0060711224 0.008276643 -0.09372612 0.05566711 0.06465398 0.031309612
-0.072517455 -0.03152849 0.15252486 0.0488043 -0.16538669 -0.118598394 -0.08390704 0.00040648336
-0.006936686 -0.037586156 0.1788911 0.060871184 -0.16577265 0.026321124 0.11698808 0.14428759
0.16718897 0.16963235 0.1837959 0.14746991 0.14152613 0.055100158 0.099310644 -0.24430327
-0.059166633 -0.086690724 -0.20064993 -0.1077465 -0.054985255 0.040902905 -0.06267861 0.02473528
0.17829752 0.0117118135 0.1651199 0.0426307 0.043725923 0.014099981 0.15088111 0.059914265
-0.052915804 0.13762929 0.053379938 0.062997125 0.12098157 0.13799962 -0.04309532 0.2008049
0.15339766 0.046907578 -0.073718056 0.06827979 0.072692275 0.04257677 0.15125994 0.03721534
0.031482924 0.016223267 0.008936329 -0.01788708 0.021403559 0.18674465 -0.021249857 0.05299564
0.14354563 -0.03318269 -0.006844733 0.0744528 0.021327512 -0.10484228 0.1490747 0.10098708
00000000: 16d7 443d 202d cebc 0b58 b3bc 1ef1 2cbe
00000010: 229e 47bb 4f17 6abd 8553 a0bd 0129 d5bc
00000020: f5b9 37be 4f35 2fbd ee09 b6bd 148c 98bc
00000030: 266c e7bd 4b2c a43d 9093 3c3d a828 ebbd
00000040: 4983 4cbe fc6e 86bd ff3c 55bb e9b9 93bc
00000050: 3805 e33d fc05 bdbc 682c c3bc e354 083c
00000060: 0f30 ffbd 7e97 15be 414e 103d 6655 183e
00000070: c8ed f03d fc84 8dbb 7d15 1d3e f4c3 373e
00000080: 8a89 8c3d f9fd 4c3e 1e7d 883d 5821 a33d
00000090: e638 d83b a90f c53c be9b e8bc 1f21 463d
000000a0: 66ce bc3d e534 5a3d f380 22bd 5acb 7cbd
000000b0: f41a d03c 0731 333d e0dc 37ba c58a d33d
000000c0: aebe 52bd 5796 e33d 3b57 9d3d 0e5d 61be
000000d0: 3aea 0abe dd9e aa3c 3336 b1bb 31bb 5f3d
000000e0: 45db c03d 828e c6bd 99d0 71ba 37a9 ad3d
000000f0: 3bde c73d c489 9abd 476b b63d 0add b5bd
00000100: 5e7a 15bd 6846 0d3d 268a 7bbb d23b 283d
00000110: cc49 143e 73f8 293e 1fe4 183e e5af 6f3d
00000120: 9360 21be 5397 bbbb 7deb dbbd ce09 62be
00000130: b8ca 1a3d fae4 983c 9db2 a5bd 9f3b 8ebd
00000140: 8d2e cabc 1ea0 8b3d 4180 ff3d 7add 2d3d
00000150: 9c67 c03d f2ea 0b3c 83f2 353e a14f 1dbd
00000160: a692 033e 43e8 7c3e 9af3 ebbc b5ed e1bc
00000170: 71ad af3d ede3 cbbd a8ec 9abb c5de 853e
00000180: d233 6cbd 05d1 febd c107 8f3d e527 2abe
00000190: d3cf b1bb 25aa 0d3e ea2e 35be 4be3 abbd
000001a0: 56d8 f23d 68c2 9fbc 1f02 9cbe ac62 0e3d
000001b0: 54f2 463d be48 0cbd c49e 933d dec1 bebc
000001c0: b6f4 363e 4692 5d3d 9423 25bc adb9 b13c
000001d0: 93b6 543d 1a09 3d3d 18d1 0e3e c01d 373e
000001e0: abad 9bbd c824 f3bc e157 ef3d 09c2 44bd
000001f0: 845d 85bd 1b85 24be 2396 f1bd 866e e23d
00000200: 4a2b bcbd f147 dabd ef86 c43d 75d7 683d
00000210: e989 c4bd 5153 0dbe 24c4 503d 583c 96bd
00000220: ca0f 503d cbce c0bc fb18 d5bc b824 61bd
00000230: e07b 7d3d 9c73 c0bd a78e 4ebe 7793 86bd
00000240: ae68 c8bd 92c7 6cbc 5fe5 99bd 6242 353e
00000250: e168 9dbc 9d69 cfbd 4712 72bd b5df b03d
00000260: 8507 4a3d 2bc8 633e 5892 d33d 2efe 0d3d
00000270: 19e2 cb3d 017a 633d 978b 8f3d ba61 833e
00000280: a815 9a3e 6e50 483e 037e ab3d d554 853d
00000290: db82 f3bc e7bf 483e f23e 303e 9454 133e
000002a0: ce42 ec3c 8fdd 863d 6622 293e ce9a a53d
000002b0: 8140 de3d e88c 1a3e dac9 bc3d b06f 853c
000002c0: dde9 a1b9 95ca 253e 44f0 c63b c29a 073c
000002d0: 7bf3 bfbd 3203 643d 4e69 843d 823e 003d
000002e0: 0884 94bd 0524 01bd 7a2f 1c3e 05e7 473d
000002f0: 215b 29be b7e3 f2bd 74d7 abbd 461d d539
00000300: 244d e3bb f1f3 19bd 3b2f 373e 1054 793d
00000310: 4ec0 29be 669f d73c 7297 ef3d 20c0 133e
00000320: 9633 2b3e 1ab4 2d3e fe34 3c3e 5a02 173e
00000330: 3aec 103e b4b0 613d 6163 cb3d a32a 7abe
00000340: b658 72bd e88a b1bd 2d77 4dbe 32aa dcbd
00000350: 3838 61bd ce89 273d a55d 80bd a4a1 ca3c
00000360: a093 363e e8e2 3f3c 3115 293e 879d 2e3d
00000370: f419 333d 9b03 673c 9480 1a3e a968 753d
00000380: 3ebe 58bd b1ee 0c3e eca4 5a3d a304 813d
00000390: 2fc5 f73d c64f 0d3e b884 30bd cd9f 4d3e
000003a0: 4714 1d3e 2922 403d 7ef9 96bd 46d6 8b3d
000003b0: b0df 943d fb64 2e3d e3e3 1a3e 1d6f 183d
000003c0: 3df4 003d a8e6 843c ae69 123c ed87 92bc
000003d0: 8456 af3c fd39 3f3e 2e14 aebc f511 593d
000003e0: a0fd 123e 93ea 07bd c849 e0bb b67a 983d
000003f0: 09b7 ae3c 8db7 d6bd 0aa7 183e 50d2 ce3d

pre_layer.4.bias f4 [48]
0.000868947 -0.060639814 -0.03556106 -0.022944067 -0.016923964 0.059250545 0.009217883 0.056405
-0.012485329 0.034419227 0.005383146 -0.022525482 -0.007552849 0.028190034 -0.03123557 0.015457618
-0.027279193 0.060604367 -0.015843615 -0.024096387 -0.0045106253 0.023114502 -0.01602255 -0.011490987
-0.020659197 -0.028520642 0.053865157 0.028819071 0.0124916835 -0.06399651 0.0078868 -0.005985192
0.023663145 -0.02609272 0.041543514 -0.054816794 -0.009390728 -0.05268458 -0.022244707 -0.047721107
0.031771988 0.0561139 0.040221065 -0.032577448 -0.053968694 0.018459475 0.014724165 -0.03771469
00000000: 0cca 633a 7461 78bd 79a8 11bd 32f5 bbbc
00000010: 20a4 8abc b3b0 723d 9b06 173c ee08 673d
00000020: 448f 4cbc 2dfb 0c3d 1a65 b03b 5c87 b8bc
00000030: e47d f7bb c9ee e63c bde1 ffbc f341 7d3c
00000040: 9d78 dfbc 493c 783d 78ca 81bc c965 c5bc
00000050: decd 93bb a05a bd3c b941 83bc b144 3cbc
00000060: 7a3d a9bc 1fa4 e9bc b6a1 5c3d f915 ec3c
00000070: eba9 4c3c 9a10 83bd a337 013c 6e1f c4bb
00000080: 36d9 c13c 66c0 d5bc 8829 2a3d 9387 60bd
00000090: 91db 19bc c9cb 57bd 883a b6bc 3577 43bd
000000a0: 5823 023d b0d7 653d d8be 243d ee6f 05bd
000000b0: 470e 5dbd 5338 973c a03d 713c b87a 1abd

pre_layer.5.weight f4 [48]
0.71919537 0.7340092 1.0885247 0.93656874 1.149349 1.0542365 1.0457766 0.86288345
1.1123301 1.1920302 1.0386982 1.1379654 0.99229217 0.95962423 1.064767 1.0617776
0.8289095 1.0552368 0.95416516 1.1253849 0.9680384 0.9262507 0.95698637 1.0117536
0.93143725 0.9420609 1.1451283 1.0301028 0.9389447 1.1731833 1.0106167 1.0602236
0.84575236 1.1722833 1.0872588 0.9759913 0.8653575 1.1175529 0.989471 1.0309033
1.015888 1.1878054 0.930872 0.7684137 0.8554871 1.0918272 0.93599916 0.91670716
00000000: 301d 383f 07e8 3b3f c754 8b3f f8c2 6f3f
00000010: de1d 933f 39f1 863f 02dc 853f eee5 5c3f
00000020: d560 8e3f 7294 983f 10f4 843f daa8 913f
00000030: dc06 7e3f efa9 753f 494a 883f 54e8 873f
00000040: 6a33 543f 0012 873f 2b44 743f 9d0c 903f
00000050: 5dd1 773f c41e 6d3f 0ffd 743f 2481 813f
00000060: ac72 6e3f e72a 713f 9093 923f 69da 833f
00000070: ae5e 703f df2a 963f e35b 813f 68b5 873f
00000080: 3a83 583f 610d 963f 4c2b 8b3f 91da 793f
00000090: 1288 5d3f f90b 8f3f f94d 7d3f a4f4 833f
000000a0: 9e08 823f 020a 983f a14d 6e3f c3b6 443f
000000b0: 3401 5b3f fec0 8b3f a49d 6f3f 52ad 6a3f

pre_layer.5.bias f4 [48]
-0.32713285 -0.15230022 0.17096214 -0.20342666 -0.14195171 -0.24752419 -0.025862603 -0.093711495
-0.27091208 -0.21363625 -0.05075506 -0.10247798 -0.21357688 -0.21901736 -0.2553342 -0.103221826
-0.108614855 0.02777607 0.007178349 -0.16354196 -0.13830385 -0.26272672 -0.16670002 -0.27985814
0.12012075 -0.26946756 -0.124462895 -0.10150136 -0.07768533 -0.35250047 0.024915999 -0.3354085
-0.15840787 -0.24876732 -0.10405306 -0.1564037 -0.22322977 -0.063826256 -0.104776315 -0.014530084
-0.1663316 -0.35992247 -0.12562746 -0.28102535 -0.090478785 -0.083202854 -0.17945546 -0.21410227
00000000: f57d a7be 97f4 1bbe b310 2f3e 144f 50be
00000010: ca5b 11be fb76 7dbe cfdd d3bc d0eb bfbd
00000020: fdb4 8abe 76c3 5abe 8ae4 4fbd fadf d1bd
00000030: e6b3 5abe 1646 60be 2abb 82be f765 d3bd
00000040: 7771 debd a48a e33c 5b38 eb3b 8b77 27be
00000050: 869f 0dbe 1e84 86be 69b3 2abe 9149 8fbe
00000060: de01 f63d a7f7 89be 67e6 febd f2df cfbd
00000070: 7c19 9fbd f17a b4be a31c cc3c aaba abbe
00000080: ac35 22be dcbc 7ebe c519 d5bd 4b28 20be
00000090: 5896 64be 57b7 82bd f794 d6bd 970f 6ebc
000000a0: d552 2abe c247 b8be 7ca4 00be 8ee2 8fbe
000000b0: f14c b9bd 4266 aabd 2cc3 37be a03d 5bbe

pre_layer.5.running_mean f4 [48]
2.0638077 0.2702589 -2.2192166 -0.86088634 -4.9107256 -3.1137016 -5.247411 -1.4739916
-6.538157 -2.8667407 -2.4098895 -4.934024 -2.0336535 -1.785105 -4.773037 -2.1577969
-1.0601188 -2.6847763 0.10573149 -2.784883 -0.84159863 -2.3402474 -2.4397767 -0.8609018
-2.5178268 -2.777713 -4.503872 -2.4946978 -2.014307 -6.746773 -5.388623 -1.8188434
-1.7103932 -6.414898 -5.7368817 -3.7975287 -1.0482997 -4.173734 -4.288171 -1.866949
-2.441684 -6.007829 -3.415839 -0.5217709 -2.9165964 -2.2133064 -2.1713681 2.7944913
00000000: 6d15 0440 605f 8a3e a507 0ec0 0c63 5cbf
00000010: aa24 9dc0 e346 47c0 caea a7c0 c2ab bcbf
00000020: 9538 d1c0 ae78 37c0 a13b 1ac0 86e3 9dc0
00000030: 6127 02c0 527e e4bf b8bc 98c0 5819 0ac0
00000040: f9b1 87bf 60d3 2bc0 c089 d83d 863b 32c0
00000050: 0273 57bf 9dc6 15c0 4d25 1cc0 0f64 5cbf
00000060: 1324 21c0 0dc6 31c0 b81f 90c0 21a9 1fc0
00000070: 68ea 00c0 90e5 d7c0 9a6f acc0 dccf e8bf
00000080: 2aee dabf d846 cdc0 8994 b7c0 b60a 73c0
00000090: af2e 86bf 3b8f 85c0 b238 89c0 2ff8 eebf
000000a0: 8d44 1cc0 2340 c0c0 1b9d 5ac0 c792 05bf
000000b0: 84a9 3ac0 d0a6 0dc0 b2f7 0ac0 f2d8 3240

pre_layer.5.running_var f4 [48]
6.147965 2.6119416 6.5312514 5.5280576 9.689435 7.6505647 12.938448 7.4684396
17.441685 7.622424 4.870319 13.053676 5.347934 6.549013 16.124664 10.184462
4.809087 4.334148 7.744026 5.1645355 10.887846 5.76966 4.214618 6.744107
5.419867 12.009568 10.156851 6.767912 3.5129106 23.545135 15.671573 3.829448
4.2497587 18.505825 16.672987 10.746963 5.5801005 6.1306367 13.619915 4.9382553
7.4456043 16.125427 5.826345 5.1483364 7.200652 5.891678 14.280138 12.21079
00000000: 21bc c440 0d2a 2740 0300 d140 d9e5 b040
00000010: ed07 1b41 6dd1 f440 e203 4f41 75fd ee40
00000020: 9288 8b41 e6ea f340 a7d9 9b40 dbdb 5041
00000030: 4622 ab40 8491 d140 50ff 8041 8ef3 2241
00000040: 0ae4 9940 57b1 8a40 10cf f740 e043 a540
00000050: 9e34 2e41 0ea1 b840 27de 8640 b9cf d740
00000060: 8d6f ad40 3127 4041 7682 2241 bc92 d840
00000070: 87d3 6040 705c bc41 c3be 7a41 ad15 7540
00000080: 06fe 8740 ee0b 9441 4762 8541 8ff3 2b41
00000090: 2f90 b240 2d2e c440 2ceb 5941 3006 9e40
000000a0: 6442 ee40 e000 8141 6b71 ba40 2cbf a440
000000b0: be6b e640 a088 bc40 727b 6441 655f 4341

pre_layer.6.weight f4 [48]
0.16391288 0.17806242 0.3722908 -0.044602484 0.19891866 0.22804411 0.20935427 0.08432717
0.22821365 0.0039168587 0.29779813 0.27312556 0.17039964 0.0009736013 0.0018751661 0.1524086
0.29781884 0.10662948 0.23283045 0.050512146 0.2600896 0.22765845 0.2028798 0.1304256
0.32995394 0.004291515 0.017400084 0.051178474 0.09642417 0.01436623 0.15498184 0.03440966
0.23004301 -0.05969619 -0.027383195 0.040947605 0.011944756 0.006716176 0.025378935 0.16145301
0.024531176 0.038234323 0.12657653 0.25315392 0.23575965 0.16548985 0.19471903 0.33576527
00000000: c7d8 273e ff55 363e e69c be3e 18b1 36bd
00000010: 55b1 4b3e 6584 693e f760 563e b9b3 ac3d
00000020: d7b0 693e fe58 803b ff78 983e 1dd7 8b3e
00000030: 3e7d 2e3e 4739 7f3a 22c8 f53a 0011 1c3e
00000040: b67b 983e 8f60 da3d 1b6b 6e3e d3e5 4e3d
00000050: 772a 853e 4c1f 693e b9bf 4f3e 4a8e 053e
00000060: b9ef a83e d69f 8c3b 9f8a 8e3c 85a0 513d
00000070: 097a c53d 5660 6b3c 8fb3 1e3e 25f1 0c3d
00000080: 6590 6b3e fe83 74bd b952 e0bc adb8 273d
00000090: f0b3 433c 5e13 dc3b 7ce7 cf3c f053 253e
000000a0: 9bf5 c83c 989b 1c3d 479d 013e 649d 813e
000000b0: fa6a 713e 2c76 293e 6d64 473e 6de9 ab3e

pre_layer.8.weight f4 [64, 48, 2, 2]
0.05662299 0.0973611 0.005937861 -0.02367596 -0.04395441 -0.023150347 0.039895672 0.046887852
0.093108624 0.10300736 0.118257426 0.12034808 0.09077635 -0.035491195 -0.070767716 -0.12363525
-0.11727906 0.022441052 0.09121591 -0.001889064 0.04855657 0.05758981 0.1071467 0.009116968
0.026992332 -0.04349597 0.09178537 0.009796831 -0.114496745 -0.072631255 0.0732334 0.06246819
0.14575896 0.12634297 0.24035017 0.17340548 0.0920123 -0.12504917 0.14478979 -0.048696056
0.09829444 0.19655938 0.11452593 0.09037019 0.12683932 -0.05244499 0.12794857 -0.10537484
0.055915203 -0.043506198 -0.0929779 0.08473808 -0.026347673 0.04930249 -0.17221735 0.022767026
-0.05126532 0.16171397 0.1762698 0.03484233 -0.022179324 0.2028427 0.011799084 0.026338015
-0.07836959 -0.033996325 0.057279143 0.11638248 0.046695683 0.0071103643 0.122668125 0.09773377
0.1232356 0.04809519 -0.18742917 -0.1819121 -0.026764376 0.20117941 0.016800413 0.110564634
0.15032016 0.053155277 0.14474462 0.057023235 0.12893493 0.14483014 -0.009183098 -0.07325044
-0.111717865 0.044030953 -0.048553884 0.04039327 0.19063781 -0.042113423 -0.06410303 -0.084753856
0.054181974 -0.10711832 -0.05550447 -0.12823229 0.0022420776 0.018560695 0.15470278 0.07958656
0.06334591 -0.041706596 -0.18159325 -0.18614432 0.026105536 0.0517546 0.06443256 0.06225052
-0.00535328 0.017756315 -0.18198161 -0.059481658 -0.024574088 -0.0136414245 0.16608593 0.24707937
0.1661999 -0.051358085 0.13122411 0.020311303 -0.0006520944 0.102057464 -0.10691847 -0.102742545
-0.0644513 -0.060478855 -0.06530246 -0.088944286 -0.05744193 -0.07411843 0.32585368 0.24139583
-0.117326066 0.0015345265 0.23276228 0.1432713 0.04959743 -0.033461664 0.1576294 0.043997984
0.00038870258 -0.13105093 -0.0038959044 -0.022278834 0.07981703 0.23189701 -0.036323212 0.10070545
0.09931622 0.17055291 0.116937004 -0.023030061 -0.00284627 -0.09742554 -0.12243917 0.016133292
-0.039646022 -0.037939645 0.06471895 -0.013010733 -0.07083085 -0.03694742 0.13066633 0.12019318
-0.07959308 0.12057945 0.083643064 0.061699573 0.08278314 0.09048445 -0.046302747 -0.10619371
-0.012287243 0.052680578 0.11049426 0.00011882451 -0.038869444 0.14239588 0.09160063 -0.027218547
-0.014097672 0.19433269 0.111504026 0.01176084 0.15363519 0.024109622 0.12370638 -0.095009156
-0.089221 -0.06195491 0.04442966 -0.14368592 0.021064177 -0.03816565 0.10558026 -0.056392167
-0.08833953 0.03138972 -0.01842368 0.03482806 0.087222375 0.16443941 -0.07487236 -0.08099133
0.13881525 -0.08165055 -0.058427688 -0.14014062 -0.23517953 -0.01557013 -0.10269164 0.17627876
0.012882998 0.07143885 -0.085680366 -0.13918827 -0.023860255 0.06937689 -0.014191602 -0.02846636
-0.12983006 0.13326666 0.09915751 0.28304407 -0.13118556 -0.03184666 -0.15940937 0.031114435
0.091071405 -0.062243268 0.15681611 -0.015411832 -0.054001283 -0.01163172 -0.09310275 -0.07489346
-0.0383059 0.045729965 -0.1767101 0.070275836 0.08176907 -0.051773977 -0.23723134 0.11552826
0.03975293 -0.07710374 -0.08963581 0.2226247 0.19200073 -0.024962025 0.03168041 0.02618136
00000000: 82ed 673d 4265 c73d 6392 c23b 16f4 c1bc
00000010: 8a09 34bd cca5 bdbc a569 233d 7a0d 403d
00000020: bcaf be3d 86f5 d23d f330 f23d 0e79 f63d
00000030: f3e8 b93d 375f 11bd aaee 90bd 7a34 fdbd
00000040: 0130 f0bd 4cd6 b73c 68cf ba3d 789a f7ba
00000050: 41e3 463d 4be3 6b3d bb6f db3d 565f 153c
00000060: 061f dd3c d528 32bd f8f9 bb3d e382 203c
00000070: 457d eabd b2bf 94bd 65fb 953d a5de 7f3d
00000080: d641 153e 0d60 013e 5b1e 763e 3591 313e
00000090: f270 bc3d e40c 00be c643 143e 8475 47bd
000000a0: 984e c93d dd46 493e 928c ea3d 0214 b93d
000000b0: 2be2 013e 8fd0 56bd f304 033e c4ce d7bd
000000c0: 5707 653d 8e33 32bd 326b bebd 298b ad3d
000000d0: 13d7 d7bc 68f1 493d bf59 30be ea81 ba3c
000000e0: 96fb 51bd 5998 253e 1280 343e d5b6 0e3d
000000f0: 6ab1 b5bc ffb5 4f3e f250 413c d2c2 d73c
00000100: 3c80 a0bd bb3f 0bbd 899d 6a3d f059 ee3d
00000110: f943 3f3d 0ffe e83b 6d39 fb3d a528 c83d
00000120: f262 fc3d 76ff 443d 6fed 3fbe 2a47 3abe
00000130: f740 dbbc fa01 4e3e 05a1 893c b66f e23d
00000140: 87ed 193e 59b9 593d ef37 143e 3291 693d
00000150: 8507 043e 5a4e 143e b474 16bc 5404 96bd
00000160: 56cc e4bd cd59 343d 70e0 46bd 6a73 253d
00000170: 8f36 433e 207f 2cbd 7348 83bd 6e93 adbd
00000180: ebed 5d3d da60 dbbd a858 63bd 534f 03be
00000190: d2ef 123b 990c 983c 686a 1e3e 47fe a23d
000001a0: 80bb 813d 89d4 2abd 95f3 39be 9e9c 3ebe
000001b0: 47db d53c a2fc 533d 38f5 833d 67fa 7e3d
000001c0: 916a afbb b175 913c 6359 3abe 0aa3 73bd
000001d0: 994f c9bc 4880 5fbc 6e12 2a3e 6002 7d3e
000001e0: 4e30 2a3e db5c 52bd 9d5f 063e e463 a63c
000001f0: 50f1 2aba 8103 d13d 12f8 dabd af6a d2bd
00000200: 0bff 83bd adb8 77bd 4cbd 85bd 6c28 b6bd
00000210: 3b48 6bbd 67cb 97bd 4bd6 a63e 7830 773e
00000220: a648 f0bd 2a22 c93a 3c59 6e3e b6b5 123e
00000230: ad26 4b3d 190f 09bd 9a69 213e 3b37 343d
00000240: c7ca cb39 3732 06be 6e52 7fbb 1a82 b6bc
00000250: 1c77 a33d 6976 6d3e a6c7 14bd a93e ce3d
00000260: 4d66 cb3d 6ca5 2e3e ab7c ef3d 8aa9 bcbc
00000270: 7d88 3abb 0b87 c7bd 63c1 fabd f729 843c
00000280: de63 22bd 9a66 1bbd 5e8b 843d f82a 55bc
00000290: c40f 91bd 2e56 17bd 65cd 053e d827 f63d
000002a0: b201 a3bd 5cf2 f63d 0e4d ab3d b1b8 7c3d
000002b0: 358a a93d e94f b93d f3a7 3dbd 167c d9bd
000002c0: 6f50 49bc 97c7 573d d14a e23d 6c31 f938
000002d0: 9135 1fbd 3ad0 113e 1c99 bb3d 6ef9 debc
000002e0: ecf9 66bc 26ff 463e 395c e43d 8ab0 403c
000002f0: 8b52 1d3e 8b81 c53c c559 fd3d 2994 c2bd
00000300: 80b9 b6bd 6fc4 7dbd e0fb 353d 6722 13be
00000310: c88e ac3c 9653 1cbd 773a d83d 79fb 66bd
00000320: 5beb b4bd 8292 003d 42ed 96bc dea7 0e3d
00000330: a5a1 b23d ce62 283e ae56 99bd c8de a5bd
00000340: 9625 0e3e 6738 a7bd df51 6fbd 0681 0fbe
00000350: e7d2 70be dc19 7fbc ff4f d2bd 6b82 343e
00000360: 3613 533c 884e 923d 3079 afbd 5f87 0ebe
00000370: 9576 c3bc 7915 8e3d e583 68bc 4932 e9bc
00000380: 2cf2 04be 0e77 083e 1813 cb3d 27eb 903e
00000390: 8255 06be a571 02bd 363c 23be b3e3 fe3c
000003a0: a583 ba3d ccf2 7ebd 6794 203e e981 7cbc
000003b0: 7330 5dbd f892 3ebc a8ac bebd be61 99bd
000003c0: a6e6 1cbd 584f 3b3d 7ef3 34be c7ec 8f3d
000003d0: 8b76 a73d f310 54bd c6ec 72be 159a ec3d
000003e0: f8d3 223d 91e8 9dbd fb92 b7bd bbf7 633e
000003f0: d79b 443e 297d ccbc 51c3 013d 4b7a d63c

pre_layer.8.bias f4 [64]
-0.057017226 -0.05590319 -0.033388615 -0.015528967 0.05953719 0.06804878 0.0014377662 0.001451484
0.011834504 0.05811319 -0.061608385 -0.010794915 -0.03400037 0.034349386 0.004167353 -0.033582315
0.025069112 0.018721633 -0.04377733 -0.03029604 -0.038507935 -0.04708041 0.046206176 -0.05119428
-0.053245306 0.05625658 -0.064438894 0.066595405 0.0045441003 0.022725787 0.012188547 0.031069536
-0.03556828 0.044443086 -0.020542748 -0.05968757 -0.058634594 -0.033243146 -0.014953934 -0.034991562
-0.016155347 -0.010221732 -0.012761569 -0.05788268 -0.02212493 0.059740633 0.025033135 -0.027594658
0.057777423 -0.019574953 0.0060906447 0.017342279 -0.04047425 -0.069382496 0.015644375 -0.068735145
-0.05075141 0.055091664 -0.016115403 0.06779485 -0.012167583 0.067229986 -0.051918358 -0.039716385
00000000: e58a 69bd befa 64bd 80c2 08bd 356d 7ebc
00000010: 45dd 733d 295d 8b3d 6e73 bc3a b93f be3a
00000020: 82e5 413c 1908 6e3d 1359 7cbd 28dd 30bc
00000030: f943 0bbd f1b1 0c3d 4a8e 883b 9c8d 09bd
00000040: bd5d cd3c 1c5e 993c dc4f 33bd 672f f8bc
00000050: 7fba 1dbd 63d7 40bd b042 3d3d 18b1 51bd
00000060: c017 5abd 4d6d 663d 8af8 83bd 2c63 883d
00000070: ade6 943b 6e2b ba3c 79b2 473c 8a85 fe3c
00000080: 0bb0 11bd f409 363d 4449 a8bc f47a 74bd
00000090: d42a 70bd f729 08bd 5801 75bc 5053 0fbd
000000a0: 3858 84bc 0d79 27bc e615 51bc 6416 6dbd
000000b0: 573f b5bc 98b2 743d 4a12 cd3c 310e e2bc
000000c0: 05a8 6c3d a75b a0bc 0894 c73b 6511 8e3c
000000d0: 54c8 25bd 6918 8ebd a228 803c 03c5 8cbd
000000e0: b6e0 4fbd cca7 613d 7304 84bc 07d8 8a3d
000000f0: 8b5a 47bc e0af 893d 58a8 54bd a6ad 22bd

pre_layer.9.weight f4 [64]
0.91358143 0.821994 0.94014066 0.9372837 0.8944873 0.8397168 0.9868409 0.96143085
0.93244004 0.9526581 0.7769408 0.94385624 0.92648995 0.7805225 1.0073359 1.0214238
0.8869546 0.8632313 0.9498703 0.90200883 0.9725388 1.0502038 0.9392479 0.90603924
0.99131936 0.95022 0.87401015 0.80183 0.9010523 0.9238527 0.79731834 0.96181875
0.97073126 0.9590466 1.0195842 0.8490037 0.79664326 0.96627253 0.84041506 0.9167902
0.97606 0.99941844 0.95635045 0.833572 0.9045412 0.83875644 0.8191101 0.94851583
0.8322368 1.0189836 0.90506023 0.9119402 0.8213877 1.0160062 1.0577726 0.9616084
0.7076258 0.66026074 0.84235466 0.77838594 0.95154935 0.99023086 0.9999995 1.0329204
00000000: 79e0 693f 336e 523f 0fad 703f d3f1 6f3f
00000010: 1ffd 643f aef7 563f 9ba1 7c3f 5520 763f
00000020: 64b4 6e3f 67e1 733f 98e5 463f 90a0 713f
00000030: 722e 6d3f 53d0 473f 62f0 803f 04be 823f
00000040: 750f 633f bafc 5c3f b32a 733f 0dea 663f
00000050: 4ef8 783f 146d 863f 8d72 703f 30f2 673f
00000060: 1bc7 7d3f 9e41 733f 21bf 5f3f bb44 4d3f
00000070: 5dab 663f 9c81 6c3f 0e1d 4c3f c139 763f
00000080: d881 783f 1484 753f bc81 823f 4e58 593f
00000090: d0f0 4b3f a35d 773f 7125 573f c3b2 6a3f
000000a0: 11df 793f e3d9 7f3f 62d3 743f f964 553f
000000b0: 0390 673f beb8 563f 33b1 513f efd1 723f
000000c0: 790d 553f 0e6e 823f 07b2 673f ea74 693f
000000d0: 7746 523f 7e0c 823f 1865 873f f82b 763f
000000e0: f726 353f d906 293f 8ea4 573f 4d44 473f
000000f0: bd98 733f c57f 7d3f f8ff 7f3f bc36 843f

pre_layer.9.bias f4 [64]
-0.18821913 -0.17858829 -0.12846048 -0.054966964 -0.25610352 -0.21539852 -0.22370145 -0.18275474
-0.10196083 -0.07774618 -0.15193212 -0.15163325 -0.17180073 -0.1483179 -0.17063357 -0.1717699
-0.17405622 -0.10242992 -0.15964857 -0.21330191 -0.23765095 -0.14993662 -0.17100549 -0.13596717
-0.17958878 -0.21349774 -0.3496419 -0.21570228 -0.17776796 -0.179255 -0.05334856 -0.20865427
-0.119524166 -0.33951578 -0.11184392 -0.2568882 -0.09437996 -0.25632006 -0.10367776 -0.15788469
-0.15699473 -0.14842153 -0.2925206 -0.12345001 -0.032092247 -0.25509965 -0.15197285 -0.17945333
-0.22977567 -0.08091387 -0.24734767 -0.24682803 -0.25922018 -0.2316691 -0.30998254 -0.1475695
-0.099074386 -0.22178869 -0.12371266 -0.059342407 -0.16241953 -0.26833826 -0.27902773 -0.13021438
00000000: 84bc 40be d9df 36be 258b 03be 0a25 61bd
00000010: 0020 83be 6e91 5cbe fe11 65be 0f24 3bbe
00000020: d7d0 d0bd 6439 9fbd 1894 1bbe bf45 1bbe
00000030: 88ec 2fbe a6e0 17be 91ba 2ebe 73e4 2fbe
00000040: cb3b 32be c7c6 d1bd ea7a 23be d16b 5abe
00000050: c55a 73be fc88 19be 101c 2fbe fa3a 0bbe
00000060: 1fe6 37be 279f 5abe 4304 b3be 0fe1 5cbe
00000070: ce08 36be 9f8e 37be 0584 5abd 77a9 55be
00000080: 16c9 f4bd 03d5 adbe 6d0e e5bd da86 83be
00000090: 484a c1bd 623c 83be 0155 d4bd 86ac 21be
000000a0: 3ac3 20be d0fb 17be 43c5 95be 5cd3 fcbd
000000b0: 2973 03bd 6c9c 82be c59e 1bbe 9dc2 37be
000000c0: 504a 6bbe 2cb6 a5bd b548 7dbe 7dc0 7cbe
000000d0: 82b8 84be aa3a 6dbe 08b6 9ebe 761c 17be
000000e0: 83e7 cabd 931c 63be 105d fdbd 0611 73bd
000000f0: 4e51 26be a263 89be b9dc 8ebe eb56 05be

pre_layer.9.running_mean f4 [64]
3.4104621 -1.7208136 -0.9382965 -1.100887 -0.88115925 -1.3844863 0.41382495 -0.6160838
-1.7054573 -1.5756553 -1.6949316 -1.4040368 -3.3616993 -0.9745882 -2.193336 -2.1387117
-1.3603954 -1.1614428 -2.1748302 -0.59566456 -0.42197397 0.9669147 -0.71637666 -1.2763163
-1.9338613 0.68655443 -2.917738 -0.52391684 -2.8729534 -1.0964706 -0.7890866 -0.23306225
-2.2471442 0.74691576 -2.6383455 -2.2463703 0.44939834 -0.21077971 -1.1066937 -0.17689347
-0.9448383 -2.2331061 -1.4472198 -3.3722513 -1.9198384 1.1135163 -0.38714185 -2.4371817
0.09753967 -1.3397365 -1.3844793 -0.67092204 0.6502645 -0.12567429 -2.015971 -0.5329375
-3.8755102 2.411849 -2.4546163 -0.27197847 -2.949443 -1.5268552 0.24198069 -1.6302165
00000000: 0345 5a40 9f43 dcbf 3334 70bf dde9 8cbf
00000010: a793 61bf d936 b1bf dde0 d33e abb7 1dbf
00000020: 6d4c dabf 13af c9bf 85f3 d8bf 7ab7 b3bf
00000030: 1526 57c0 9d7e 79bf 9e5f 0cc0 a7e0 08c0
00000040: 7021 aebf 28aa 94bf 6b30 0bc0 797d 18bf
00000050: f90c d8be b987 773f 7664 37bf 555e a3bf
00000060: c488 f7bf 08c2 2f3f 38bc 3ac0 6a1f 06bf
00000070: 78de 37c0 2659 8cbf 9401 4abf dfa7 6ebe
00000080: 36d1 0fc0 df35 3f3f a7da 28c0 88c4 0fc0
00000090: 8a17 e63e a3d6 57be 24a8 8dbf 9023 35be
000000a0: ece0 71bf 36eb 0ec0 803e b9bf f7d2 57c0
000000b0: 44bd f5bf b487 8e3f 7537 c6be c9fa 1bc0
000000c0: e1c2 c73d 7c7c abbf 9e36 b1bf 8cc1 2bbf
000000d0: bc77 263f c3b0 00be ab05 01c0 986e 08bf
000000e0: 5c08 78c0 bc5b 1a40 6f18 1dc0 c340 8bbe
000000f0: adc3 3cc0 fe6f c3bf c9c9 773e efaa d0bf

pre_layer.9.running_var f4 [64]
2.2014399 1.9422423 1.7371651 1.7315645 1.9155021 1.8031628 2.2532017 2.0665214
2.3359234 1.7292953 2.8254094 1.8871368 2.0245993 1.9609202 1.4484047 2.0115893
1.8214641 2.2534394 1.4890939 2.0987308 1.9248248 2.4321187 2.1433818 2.0439854
1.6679109 2.8765802 1.6980964 1.8871702 3.1923032 1.4790785 0.9680894 1.8770059
3.273721 5.080048 1.6347381 1.6067879 2.5792239 1.3136628 3.1009436 3.2097874
1.6319019 4.198209 2.3977988 1.6312375 3.1581671 1.9172554 1.9925431 1.9557604
1.813841 2.1394427 2.732929 2.410811 2.6105332 1.6068112 1.5387975 1.8813021
3.154917 1.6209053 2.0073767 1.9380952 2.3419538 2.9835289 2.4133785 1.8449471
00000000: 64e4 0c40 659b f83f 6d5b de3f e8a3 dd3f
00000010: 2c2f f53f 0ace e63f 7534 1040 e341 0440
00000020: c57f 1540 8c59 dd3f 82d3 3440 b38d f13f
00000030: 0993 0140 6fff fa3f 5365 b93f e1bd 0040
00000040: bc25 e93f 5a38 1040 a19a be3f 9b51 0640
00000050: a960 f63f d5a7 1b40 2b2d 0940 a8d0 0240
00000060: 1b7e d53f e419 3840 395b d93f cb8e f13f
00000070: b24e 4c40 7252 bd3f b5d4 773f bb41 f03f
00000080: a584 5140 c18f a240 193f d13f 3aab cd3f
00000090: 0112 2540 1a26 a83f dc75 4640 286d 4d40
000000a0: 29e2 d03f ba57 8640 8975 1940 64cc d03f
000000b0: 691f 4a40 a068 f53f a70b ff3f 5b56 fa3f
000000c0: f12b e83f a1ec 0840 4fe8 2e40 ba4a 1a40
000000d0: fa12 2740 fdab cd3f 51f7 c43f 82ce f03f
000000e0: 29ea 4940 d379 cf3f dc78 0040 8113 f83f
000000f0: 92e2 1540 23f2 3e40 cb74 1a40 3a27 ec3f

pre_layer.10.weight f4 [64]
0.033285387 0.0204479 -0.02206677 -0.0019546875 0.04177906 0.0124753015 0.0015921154 0.03918224
0.0317699 -0.01175859 0.10666117 0.038119465 -0.021567302 0.077688694 0.045947824 0.025002517
0.044108927 -0.0013297325 -0.0040882267 0.052711625 0.023601608 0.0025092158 0.027715309 0.041348077
0.116032936 0.06210918 0.03760912 0.0238639 0.007469398 0.06944052 0.1948399 -0.017350001
0.020342795 0.08313138 -0.0015907956 0.030366039 0.058663458 0.014617119 -0.073908545 0.007778882
0.027325226 -5.0689792e-05 -0.016978804 0.08504191 0.0064116293 -0.06953594 0.042374536 0.11192812
0.114570476 0.16084026 0.0048404424 0.0112280715 0.11442273 0.011290368 -0.013012482 -0.00290746
0.068258114 0.10567067 0.06890842 -0.0019223448 0.07778837 -0.01270783 -0.05768511 0.023070615
00000000: 4256 083d 5b82 a73c 5fc5 b4bc 371a 00bb
00000010: 8520 2b3d 3565 4c3c 87ae d03a 8e7d 203d
00000020: 2821 023d 1aa7 40bc 2c71 da3d 2823 1c3d
00000030: e9ad b0bc 401b 9f3d c933 3c3d 14d2 cc3c
00000040: 90ab 343d 6b4a aeba 88f6 85bb 25e8 573d
00000050: 2958 c13c a871 243b 370b e33c 9a5c 293d
00000060: ada2 ed3d 3266 7e3d 050c 1a3d 3a7e c33c
00000070: dac1 f43b d536 8e3d 1c84 473e 9721 8ebc
00000080: efa5 a63c c940 aa3d 3e82 d0ba 33c2 f83c
00000090: 1849 703d a47c 6f3c 5d5d 97bd fee5 fe3b
000000a0: 27d9 df3c c09b 54b8 2217 8bbc 742a ae3d
000000b0: a518 d23b dc68 8ebd ec90 2d3d 923a e53d
000000c0: eda3 ea3d 4fb3 243e 939c 9e3b f2f5 373c
000000d0: 7756 ea3d 3cfb 383c 4e32 55bc 168b 3ebb
000000e0: e9ca 8b3d dd69 d83d dc1f 8d3d 30f7 fbba
000000f0: 824f 9f3d 8134 50bc 3947 6cbd 96fe bc3c

linear4.0.weight f4 [128, 576]
-0.026040714 -0.046938468 -0.12536547 -0.041517917 -0.010244326 0.03838363 0.116950616 -0.13762218
-0.11476933 -0.1265811 -0.1379468 -0.1642202 -0.051958002 -0.040239003 -0.0030415216 -0.114380844
-0.07356114 -0.118290275 0.0036403087 -0.05834947 -0.14611287 -0.11189635 -0.17652231 -0.0345271
-0.22544125 -0.040906977 0.029860722 -0.07604761 -0.14717211 0.020950256 0.012095033 -0.04779021
0.070932455 -0.09177858 0.013992075 0.0052242843 -0.042596053 0.07852711 0.027491042 -0.004845536
0.08779423 0.071023196 0.021067591 0.049400594 0.03281589 -0.009170253 0.025144862 -0.026804933
-0.20305607 -0.105908446 -0.010057152 0.0021365248 -0.011193134 -0.03211142 -0.10533502 0.015902545
0.074874684 -0.16440575 -0.044879984 0.017163016 -0.350519 -0.040203996 0.04482118 -0.052675676
-0.008576907 -0.12198859 0.1303906 -0.10026151 -0.060281493 0.08154111 -0.045003027 0.0044250744
-0.09236289 -0.006669148 0.013557729 -0.044215154 -0.016967567 0.03590803 -0.010208676 0.024593132
-0.006510747 -0.09201714 -0.100740984 -0.2127702 0.045771807 0.044096146 -0.031249696 0.01724424
-0.030466571 -0.12666954 -0.041940108 -0.13017651 -0.083024055 0.10297281 -0.07082683 -0.15346034
0.23830323 0.055876147 -0.23447199 -0.14564183 -0.013490775 0.046981145 -0.010608271 -0.0046010083
0.063181445 0.15361705 -0.049968835 -0.11873188 -0.12752804 0.03216527 -0.083903834 0.08055257
0.08163017 0.1283066 0.0037190695 -0.006428354 -0.017665265 -0.039930828 0.010892654 0.13137548
-0.032003984 0.052788455 0.12285023 0.10965608 0.14868023 -0.027455885 0.05264416 -0.14789851
-0.008413719 0.2082917 -0.06602623 -0.18681438 -0.17595363 0.022170616 -0.14393243 0.0015122892
-0.011470928 0.12421194 -0.13711299 -0.016986305 0.06677296 -0.024948092 0.0054043247 -0.024063846
-0.0786729 -0.21602835 0.0007974067 0.09685795 0.037513107 -0.007061677 0.1116165 -0.09592547
-0.054870572 0.075377926 -0.0960681 -0.28661987 0.10775985 -0.06830963 0.01387728 0.04184528
-0.055482164 -0.15787892 0.01854752 0.022713372 -0.10258539 -0.057470378 -0.0073401555 -0.10208548
-0.11168572 0.07191644 0.029793955 -0.07955678 -0.11046802 -0.04621638 -0.03638672 0.018011736
-0.13092649 -0.12571736 -0.08894711 -0.076178 -0.01417489 0.07647206 -0.0116799725 0.046161734
-0.050889052 -0.0662996 0.13235071 -0.070032604 -0.1828687 0.0029535014 0.032602858 -0.12866282
0.024700971 0.054977152 -0.0011231797 0.020858215 -0.089713305 0.07109912 -0.0017430818 -0.029505152
-0.024944454 -0.10696816 -0.049158867 -0.067619145 -0.12217824 0.0062864106 0.10979983 -0.019012224
0.046168715 0.09905089 -0.16557935 0.0139127895 0.101652056 -0.29797548 -0.16260646 0.010713248
0.07733687 0.07007626 -0.031265557 -0.08767599 0.09050475 -0.035455283 -0.17745048 0.07450915
-0.19674842 -0.17261194 -0.06603465 -0.013608435 -0.17466965 -0.10454597 -0.1607176 -0.034951687
0.010175296 0.012154979 0.013948038 0.024702232 0.0114659425 0.03523345 0.004675509 0.05573355
-0.18934329 -0.01381524 0.155628 0.027584005 -0.013429548 -0.08969014 -0.07674956 0.0049600555
-0.021243429 0.06401778 0.072754644 0.13155498 -0.14903153 -0.11271187 -0.03654576 0.02863556
00000000: 5653 d5bc 8d42 40bd ce5f 00be b10e 2abd
00000010: d1d7 27bc 2738 1d3d ce83 ef3d d4ec 0cbe
00000020: 2f0c ebbd 7a9e 01be ed41 0dbe 5729 28be
00000030: ead1 54bd a7d1 24bd 4454 47bb 8140 eabd
00000040: 39a7 96bd 2c42 f2bd 3f92 6e3b dbff 6ebd
00000050: 9d9e 15be ea29 e5bd 44c2 34be 4a6c 0dbd
00000060: 12da 66be 138e 27bd 799e f43c d9be 9bbd
00000070: 49b4 16be df9f ab3c 3f2a 463c abbf 43bd
00000080: 0945 913d 68f6 bbbd 043f 653c 7930 ab3b
00000090: 3379 2ebd d2d2 a03d e534 e13c 4dc7 9ebb
000000a0: 76cd b33d 9c74 913d f195 ac3c 4758 4a3d
000000b0: f469 063d d43e 16bc 99fc cd3c 0596 dbbc
000000c0: eeed 4fbe 87e6 d8bd c1c6 24bc f004 0c3b
000000d0: 6863 37bc 4487 03bd e3b9 d7bd 0e46 823c
000000e0: e657 993d fb59 28be 13d4 37bd 7499 8c3c
000000f0: 3a77 b3be f2ac 24bd 6a96 373d 73c2 57bd
00000100: 2886 0cbc 27d5 f9bd 1d85 053e e855 cdbd
00000110: bae9 76bd 07ff a63d 1855 38bd 3700 913b
00000120: c128 bdbd de88 dabb 3d21 5e3c f31a 35bd
00000130: 91ff 8abc 4c14 133d 4a42 27bc 8977 c93c
00000140: 1b58 d5bb 7b73 bcbd 4a51 cebd 6ee0 59be
00000150: 387b 3b3d 299e 343d 5dff ffbc cb43 8d3c
00000160: 0895 f9bc a9b5 01be 64c9 2bbd fe4c 05be
00000170: 8408 aabd 69e3 d23d a80d 91bd b524 1dbe
00000180: c305 743e 63de 643d 6d19 70be 2223 15be
00000190: 6908 5dbc 4d6f 403d 50ce 2dbc 0ec4 96bb
000001a0: 4665 813d ca4d 1d3e 1fac 4cbd b329 f3bd
000001b0: b696 02be bbbf 033d c6d5 abbd bff8 a43d
000001c0: b82d a73d ce62 033e a2bb 733b f1a4 d2bb
000001d0: bfb6 90bc 828e 23bd 1a77 323c 4b87 063e
000001e0: 9c16 03bd b538 583d e798 fb3d 5e93 e03d
000001f0: a13f 183e 2aeb e0bc 67a1 573d b572 17be
00000200: b2d9 09bc 6b4a 553e c338 87bd 454c 3fbe
00000210: 302d 34be 279f b53c 0663 13be 0138 c63a
00000220: 8ff0 3bbc d462 fe3d 5967 0cbe dd26 8bbc
00000230: 43c0 883d f15f ccbc c316 b13b 8b21 c5bc
00000240: 421f a1bd 8936 5dbe 0f09 513a 765d c63d
00000250: 58a7 193d a465 e7bb 3197 e43d 9374 c4bd
00000260: f7bf 60bd be5f 9a3d 5abf c4bd d7bf 92be
00000270: 32b1 dc3d ebe5 8bbd 885d 633c f565 2b3d
00000280: 4441 63bd 03ab 21be f8f0 973c 6511 ba3c
00000290: 4a18 d2bd 0f66 6bbd b085 f0bb 3112 d1bd
000002a0: 7cbb e4bd ed48 933d 7412 f43c aaee a2bd
000002b0: 0f3d e2bd 634d 3dbd 3e0a 15bd 598d 933c
000002c0: 9811 06be 0dbc 00be e729 b6bd 3603 9cbd
000002d0: cc3d 68bc 629d 9c3d 5b5d 3fbc 1614 3d3d
000002e0: 0a71 50bd 16c8 87bd f286 073e 416d 8fbd
000002f0: ef41 3bbe 888f 413b 938a 053d 30c0 03be
00000300: b159 ca3c b92f 613d a837 93ba d9de aa3c
00000310: 9cbb b7bd 6a9c 913d 1f78 e4ba cab4 f1bc
00000320: 5058 ccbc 1f12 dbbd cf5a 49bd e87b 8abd
00000330: 9638 fabd 3cfe cd3b bcde e03d 86bf 9bbc
00000340: 681b 3d3d 31db ca3d a28d 29be 78f2 633c
00000350: f42e d03d 3e90 98be 4f82 26be 9e86 2f3c
00000360: cb62 9e3d 2484 8f3d 5010 00bd 788f b3bd
00000370: 8e5a b93d 8f39 11bd 94b5 35be 4198 983d
00000380: 6b78 49be 2fc1 30be 2d3d 87bd eaf5 5ebc
00000390: 9adc 32be 331c d6bd 2893 24be 8029 0fbd
000003a0: 49b6 263c ad25 473c 5086 643c 565c ca3c
000003b0: a6db 3b3c f350 103d 0335 993b dd48 643d
000003c0: 35e3 41be 5159 62bc f25c 1f3e daf7 e13c
000003d0: 9b07 5cbc 77af b7bd e02e 9dbd f687 a23b
000003e0: b306 aebc c11b 833d 6300 953d 59b6 063e
000003f0: b99b 18be 7bd5 e6bd 02b1 15bd 1f95 ea3c

linear4.0.bias f4 [128]
-0.060403563 0.020016428 -0.11025151 0.025724737 -0.043654863 0.093073495 0.17183295 -0.094778806
0.08214112 0.4139164 0.013568974 0.01179843 0.14805682 -0.056787074 -0.097120255 0.9241801
0.09758723 0.060572337 0.16853741 0.5046183 0.023674797 0.47047856 0.04607465 0.11619813
0.015108238 -0.0054974156 -0.6716535 0.06307294 0.3250462 0.10153506 0.05349797 -0.066159315
-0.12944141 -0.21336097 -0.001036611 0.0533321 -0.02543098 0.75075924 -0.073348105 -0.06728547
-0.114764616 -0.12551288 -0.026475605 0.41482222 -0.02550249 -0.091844976 0.07946778 0.044388834
0.064166546 -0.2089766 0.00972817 0.15480505 -0.013271121 -0.17327005 -0.14623617 -0.12306572
-0.015999222 0.10725896 -0.021686843 0.016170131 0.10096908 0.023324061 0.02236734 0.16466847
0.012226405 0.24582514 0.10269112 -0.71381193 -0.12987167 -0.1688061 -0.15265103 0.6530456
-0.003733554 -0.054383967 -0.15523323 0.07260974 -0.26317498 0.08607129 -0.17075224 0.04727789
0.0067457 -0.49992383 0.20596643 0.09520536 -0.05137084 -0.24572901 0.102773935 0.3359613
0.16995 -0.041205626 0.052780375 0.15631562 0.084613614 -0.038393393 -0.09998163 0.026150007
-0.3345682 0.2690305 -0.2338173 0.07689358 0.2167015 0.05492317 0.31588143 0.47723466
0.022848621 0.051650107 -0.01855029 0.3330576 0.06807596 0.009778629 -0.08154152 -0.5805579
0.03928505 0.10997691 -0.17782603 0.13249016 0.16494499 0.022772402 0.08022073 0.043844003
-0.04427962 -0.010294362 0.715341 0.05878778 0.05536297 0.09516522 0.01001211 0.0073711746
00000000: ba69 77bd 7ef9 a33c 8bcb e1bd afbc d23c
00000010: 71cf 32bd 519d be3d faf4 2f3e 641b c2bd
00000020: 9b39 a83d daec d33e 6750 5e3c 344e 413c
00000030: 359c 173e 9099 68bd fce6 c6bd 1197 6c3f
00000040: d0db c73d b31a 783d 1295 2c3e aa2e 013f
00000050: a6f1 c13c 91e2 f03e c6b8 3c3d 49f9 ed3d
00000060: 8b88 773c aa23 b4bb 7cf1 2bbf 632c 813d
00000070: 756c a63e 9df1 cf3d b020 5b3d 897e 87bd
00000080: 4a8c 04be 4c7b 5abe e5de 87ba c372 5a3d
00000090: a154 d0bc c231 403f 8837 96bd f7cc 89bd
000000a0: b609 ebbd 7386 00be 5ee3 d8bc 9463 d43e
000000b0: 99ea d0bc 3819 bcbd 01c0 a23d 11d1 353d
000000c0: c069 833d f6fd 55be e762 1f3c 3785 1e3e
000000d0: 1e6f 59bc b46d 31be efbe 15be e109 fcbd
000000e0: cd10 83bc 96aa db3d 9ba8 b1bc 3977 843c
000000f0: e1c8 ce3d 1a12 bf3c b63b b73c da9e 283e
00000100: 4251 483c 96b9 7b3e b94f d23d 61bc 36bf
00000110: 14fd 04be 82db 2cbe 8d50 1cbe ff2d 273f
00000120: a4ae 74bb b9c1 5ebd 76f5 1ebe 6ab4 943d
00000130: dfbe 86be 2546 b03d add9 2ebe 76a6 413d
00000140: 080b dd3b 04f6 ffbe dde8 523e 07fb c23d
00000150: 3b6a 52bd 63a0 7bbe 247b d23d 1f03 ac3e
00000160: 5f07 2e3e 3bc7 28bd 3c30 583d 3411 203e
00000170: e749 ad3d 6442 1dbd 2bc3 ccbd 8a38 d63c
00000180: 864c abbe 5ebe 893e cd6d 6fbe 627a 9d3d
00000190: ffe6 5d3e 1ef7 603d 36bb a13e 1a58 f43e
000001a0: 082d bb3c 108f 533d c7f6 97bc 8786 aa3e
000001b0: 696b 8b3d 8b36 203c 3eff a6bd 719f 14bf
000001c0: 5ce9 203d 933b e13d 0718 36be 80ab 073e
000001d0: 57e7 283e 308d ba3c c44a a43d c595 333d
000001e0: 8c5e 35bd afa9 28bc 9620 373f 75cb 703d
000001f0: 48c4 623d fce5 c23d d509 243c e589 f13b
