param/p_net.pth (torch_old, 31737 bytes, 24 tensors)

pre_layer.0.weight f4 [10, 3, 3, 3]
0.06326481 0.039305337 -0.18453097 0.24601832 -0.019300865 -0.2212732 -0.081347965 0.015804436
-0.13511954 -0.019530704 0.05584835 -0.18051875 -0.030853417 0.16330285 -0.2268841 0.2313484
0.069776155 0.07778189 0.20952934 -0.066910006 -0.06621416 0.14917433 -0.0008800902 0.06585533
-0.12878859 -0.09708545 -0.10189248 0.094695225 0.12860714 -0.15059957 -0.14706825 -0.10956309
-0.16675703 -0.07615806 0.020345131 0.024788084 0.20744659 0.3055193 -0.07111668 0.110781364
-0.16883641 -0.13067792 0.047876045 -0.12025135 -0.0448224 0.0778486 0.29110795 0.040738124
-0.0434506 0.1037454 0.059099305 -0.086067125 -0.16342661 -0.08536587 -0.18499368 -0.053243853
-0.12312282 0.15712146 0.17740493 0.15864785 -0.09251682 -0.054531667 0.117978774 -0.0915899
-0.20942934 -0.2280866 0.10151833 0.22403583 0.24817789 0.04228972 -0.11882472 -0.11259944
0.15336366 -0.15435998 0.040700395 -0.05350466 0.02206806 0.09574797 -0.012780584 -0.03250425
-0.045480233 0.08807036 -0.23929285 -0.15689242 0.20928372 0.16937788 -0.1322679 0.21147686
0.023336735 -0.10133642 -0.10582892 -0.036287706 -0.08045418 -0.15353593 -0.091189146 -0.037905443
0.04776223 0.15410301 0.11572338 -0.23113513 -0.21009023 -0.112111084 0.14504251 0.07567147
0.07246959 0.0187735 0.27058375 0.07325876 -0.26307455 -0.068464525 0.1387789 0.093659356
0.10638791 0.0460952 0.17816357 0.119270444 0.14422117 -0.0030126541 0.09282743 0.040393986
-0.21074641 -0.15669598 0.13668126 -0.15401107 -0.17035154 -0.01968028 -0.13622852 0.07977111
0.058175456 -0.07836269 -0.020228935 -0.20666875 -0.047390047 -0.15349059 -0.07510957 -0.023156619
0.10919591 0.046520937 -0.15994956 0.05366637 0.042743195 -0.08351696 0.1635127 0.051316664
0.0040096734 0.15697742 -0.11169718 -0.16968447 0.2125299 -0.13476038 0.018880676 0.006359907
-0.043824583 0.10122001 0.0977159 0.027673708 -0.09410775 0.23893553 -0.279151 -0.07400121
0.12211069 -0.04508603 -0.020398293 0.22058116 0.12462501 0.04824035 -0.17659624 0.100598946
-0.14768323 0.069624476 -0.15865728 0.083742365 -0.024735235 -0.047926046 -0.035442192 -0.20631215
-0.17731984 0.101846404 0.100670286 -0.004106672 -0.030590998 0.21967463 0.045885812 0.0144621665
-0.31178588 -0.07810605 -0.12463735 0.048685554 0.14701293 -0.086326756 -0.122558214 -0.07200522
-0.065889806 -0.0754894 -0.2235238 -0.13536923 -0.15683447 -0.028487753 -0.027428094 0.20889995
0.021926155 0.09340062 0.20851009 0.21411638 0.22802073 0.18411851 0.14130291 0.103665255
-0.11754035 0.107058324 -0.11571255 0.06164035 0.04398943 -0.073087804 -0.117354974 -0.06404961
-0.23139717 -0.1395972 -0.0040870197 -0.09703651 0.050493147 0.1677832 -0.12942699 0.16920626
0.055565313 0.13354129 -0.17784287 0.12721992 -0.12425025 0.1375132 0.10254545 0.08091748
-0.022673905 -0.04744228 -0.07117741 -0.12926427 -0.028460864 -0.07202095 -0.16414183 0.14927892
0.00471824 0.11182237 0.16206807 0.0045840447 0.00162515 0.2547265 -0.023827892 -0.027024703
0.005672926 -0.23423272 -0.19030116 -0.12681751 -0.078155 -0.08233789 -0.099130794 -0.07569731
00000000: fb90 813d a2fe 203d b0f5 3cbe 3aec 7b3e
00000010: d91c 9ebc 7195 62be c399 a6bd 4e78 813c
00000020: c75c 0abe dbfe 9fbc 3dc1 643d e8d9 38be
00000030: 4ec0 fcbc dd38 273e 4e54 68be 98e6 6c3e
00000040: cde6 8e3d 1d4c 9f3d dc8e 563e 1d08 89bd
00000050: 4a9b 87bd 28c1 183e dbb5 66ba 29df 863d
00000060: 28e1 03be bdd4 c6bd 01ad d0bd 92ef c13d
00000070: 97b1 033e c636 1abe 0f99 16be 9d62 e0bd
00000080: 5bc2 2abe c2f8 9bbd d5aa a63c 6110 cb3c
00000090: e16c 543e 076d 9c3e 9fa5 91bd 57e1 e23d
000000a0: 74e3 2cbe 6fd0 05be ac19 443d 5746 f6bd
000000b0: b197 37bd 166f 9f3d 1a0c 953e 05dd 263d
000000c0: 42f9 31bd 7878 d43d 1d12 723d f643 b0bd
000000d0: 4e59 27be 4dd4 aebd fc6e 3dbe 3a16 5abd
000000e0: d127 fcbd 73e4 203e a3a9 353e 9574 223e
000000f0: 7579 bdbd 995c 5fbd db9e f13d 7c93 bbbd
00000100: a574 56be 898f 69be d8e8 cf3d a669 653e
00000110: 5822 7e3e fc37 2d3d 605a f3bd 899a e6bd
00000120: 5d0b 1d3e 8b10 1ebe 75b5 263d b427 5bbd
00000130: 13c8 b43c 8317 c43d a865 51bc 2d23 05bd
00000140: 7b49 3abd 3c5e b43d 2f09 75be 68a8 20be
00000150: 794e 563e 6571 2d3e 3d71 07be 648d 583e
00000160: ae2c bf3c 7889 cfbd d5bc d8bd 6ba2 14bd
00000170: 29c5 a4bd 8638 1dbe 60c1 babd bd42 1bbd
00000180: 54a2 433d 2ecd 1d3e 6100 ed3d b0ae 6cbe
00000190: e521 57be 7f9a e5bd 0686 143e a5f9 9a3d
000001a0: f06a 943d e2ca 993c f489 8a3e b008 963d
000001b0: b5b1 86be 2137 8cbd 0e1c 0e3e 7ad0 bf3d
000001c0: e8e1 d93d 52ce 3c3d 8370 363e 1044 f43d
000001d0: b7ae 133e f36f 45bb 4f1c be3d 2a74 253d
000001e0: e8cd 57be e974 20be 2cf6 0b3e 14b5 1dbe
000001f0: a270 2ebe 8a38 a1bc 7d7f 0bbe 095f a33d
00000200: 6349 6e3d 9e7c a0bd 27b7 a5bc f9a0 53be
00000210: 111c 42bd a32c 1dbe 0cd3 99bd f3b2 bdbc
00000220: 1ba2 df3d bd8c 3e3d d1c9 23be 45d1 5b3d
00000230: 7d13 2f3d f10a abbd e06f 273e 6c31 523d
00000240: 9463 833b b0be 203e 7ec1 e4bd c4c1 2dbe
00000250: 70a1 593e a0fe 09be a6ab 9a3c c466 d03b
00000260: 6881 33bd 704c cf3d 461f c83d f9b3 e23c
00000270: 90bb c0bd 84ab 743e e1ec 8ebe f28d 97bd
00000280: 2b15 fa3d 21ac 38bd 521a a7bc 07e0 613e
00000290: 663b ff3d ac97 453d a5d5 34be d206 ce3d
000002a0: 463a 17be 4797 8e3d 0e77 22be 1e81 ab3d
000002b0: 8ca1 cabc 1a4e 44bd d52b 11bd 7e43 53be
000002c0: 5593 35be d994 d03d 392c ce3d 4391 86bb
000002d0: f999 fabc 63f2 603e c3f2 3b3d b9f2 6c3c
000002e0: 66a2 9fbe 11f6 9fbd de41 ffbd 816a 473d
000002f0: 8f8a 163e 15cc b0bd cdff fabd 7977 93bd
00000300: 3cf1 86bd 309a 9abd 6ce3 64be 3b9e 0abe
00000310: 3799 20be 265f e9bc e2b0 e0bc dee9 553e
00000320: 7b9e b33c d348 bf3d ab83 553e 5341 5b3e
00000330: 447e 693e 9089 3c3e b6b1 103e 734e d43d
00000340: ffb8 f0bd 6541 db3d b4fa ecbd 977a 7c3d
00000350: 432e 343d 0faf 95bd ce57 f0bd 712c 83bd
00000360: 61f3 6cbe 92f2 0ebe 68ec 85bb 14bb c6bd
00000370: e7d1 4e3d 5ccf 2b3e 8288 04be 6844 2d3e
00000380: 7498 633d 0cbf 083e 711c 36be f045 023e
00000390: ea76 febd 43d0 0c3e 5903 d23d 10b8 a53d
000003a0: a0be b9bc d652 42bd 76c5 91bd da5d 04be
000003b0: c226 e9bc b87f 93bd cc14 28be 93dc 183e
000003c0: 779b 9a3b 2003 e53d 2cf5 253e c135 963b
000003d0: fc02 d53a 836b 823e b632 c3bc e962 ddbc
000003e0: f4e3 b93b b4da 6fbe 4fde 42be 73dc 01be
000003f0: bb0f a0bd c5a0 a8bd 1605 cbbd 3107 9bbd

pre_layer.0.bias f4 [10]
-0.16558644 0.024093648 -0.16623339 -0.018542849 -0.20270933 0.09455055 0.057856105 -0.07187956
0.0033121228 -0.121282294
00000000: 7e8f 29be 0b60 c53c 1639 2abe 2ce7 97bc
00000010: 0993 4fbe b8a3 c13d 86fa 6c3d 9735 93bd
00000020: 3310 593b da62 f8bd

pre_layer.1.weight f4 [10]
1.0055605 0.9588307 0.8856549 0.9977065 0.99193144 0.9003675 1.0162941 1.0937067
1.0781054 0.93318814
00000000: 35b6 803f ee75 753f 48ba 623f b169 7f3f
00000010: 38ef 7d3f 7c7e 663f ed15 823f 95fe 8b3f
00000020: 5cff 893f 6be5 6e3f

pre_layer.1.bias f4 [10]
0.122229956 -0.292385 -0.094681434 0.058238804 -0.27458265 -0.0632388 0.18553503 0.20847346
0.14573522 -0.121997
00000000: b353 fa3d 7db3 95be 57e8 c1bd d08b 6e3d
00000010: 1996 8cbe 5883 81bd e5fc 3d3e 117a 553e
00000020: 9d3b 153e 90d9 f9bd

pre_layer.1.running_mean f4 [10]
-0.18941452 -0.061867688 -0.14309199 -0.01901341 0.014460375 0.10077751 0.10310343 -0.2590642
-0.02207376 -0.26380175
00000000: e1f5 41be f968 7dbd b586 12be 03c2 9bbc
00000010: 35eb 6c3c 7064 ce3d e427 d33d 10a4 84be
00000020: 08d4 b4bc 0611 87be

pre_layer.1.running_var f4 [10]
0.12045093 0.10042532 0.048236016 0.10551918 0.134402 0.067482166 0.053170774 0.055294193
0.0860947 0.05636406
00000000: faae f63d caab cd3d 2193 453d 711a d83d
00000010: aea0 093e 1734 8a3d 99c9 593d 2a7c 623d
00000020: 6b52 b03d 00de 663d

pre_layer.2.weight f4 [10]
0.18987963 -0.07223085 0.18996237 0.32317704 0.15966909 0.2802411 0.17745996 0.067155994
0.18184888 0.03094449
00000000: ce6f 423e c5ed 93bd 7f85 423e 7677 a53e
00000010: 4b80 233e c37b 8f3e 10b8 353e 1589 893d
00000020: 9836 3a3e 4d7f fd3c

pre_layer.4.weight f4 [16, 10, 3, 3]
-0.188903 0.117246985 -0.019875526 -0.07559945 -0.14625742 0.021861564 -0.109203674 0.07115976
-0.015330794 -0.13044427 0.069544315 -0.032080837 0.04410492 0.02948963 -0.067528665 -0.0032254024
0.15505952 0.036520146 0.010090843 -0.124491215 0.042706657 0.0016351991 -0.009275358 0.056686066
0.08828124 0.043804187 -0.0051675006 0.18179461 0.08920857 -0.08751317 0.12237612 -0.009660401
-0.037113104 -0.08045278 -0.11164677 -0.06662399 -0.024357911 -0.1585277 0.12951365 -0.16461875
-0.024086291 0.011042522 -0.13879661 -0.091397375 -0.0031539295 -0.071506366 -0.2632722 -0.03302024
-0.07897613 -0.06318276 -0.040513165 -0.00066213566 0.053873383 0.03838692 0.15006499 -0.054151937
-0.004530216 0.105294965 0.030451894 -0.035440426 0.07393747 0.024727177 0.1368013 -0.23758447
-0.006845287 0.022809245 -0.1503201 0.26330125 0.047549818 -0.14845563 0.12763788 -0.12635997
-0.23099633 -0.07437613 -0.02289089 -0.061774347 -0.078003265 0.0560967 0.08207067 0.107902855
0.21865396 -0.14963081 0.07627319 -0.016687997 -0.05025 0.16454025 -0.115491025 -0.106888555
-0.09567087 -0.06337159 0.15198822 0.0061264844 -0.0037718276 -0.11457583 -0.003361147 0.13683018
-0.0051481365 0.07091696 0.06755755 0.04052278 -0.034364797 0.0014564786 0.079319164 0.07223707
-0.21817684 -0.02245899 0.101312496 -0.03439145 -0.09793094 -0.04308405 0.114784956 -0.06961737
0.03650874 0.0030505636 -0.12853394 0.042244192 0.07621106 0.11187851 0.10272934 0.042780258
0.13050665 0.12658387 0.18288672 -0.027571134 0.20886128 0.025716068 0.16010019 0.020386437
0.04355118 0.11220668 0.122319095 -0.048649993 -0.15501894 0.008969074 -0.060896568 -0.03732908
0.12269468 -0.13130268 -0.09286056 -0.09337479 0.108254656 -0.020882642 0.059238307 -0.053971343
0.09182619 0.018325478 -0.02379661 -0.036574673 0.07455661 0.074738696 0.0599646 0.086401545
0.04403058 0.04079698 -0.20112532 -0.18008439 0.05654435 0.0074158595 0.1598214 0.121231236
0.18758851 -0.0513764 -0.07378614 -0.11426866 -0.15049939 -0.28846037 -0.13026728 -0.0057213227
0.07521545 0.04772676 -0.14992929 0.047190927 0.05984076 0.056525264 0.07546205 0.07457298
0.11986619 0.2225811 0.13026042 0.14123154 0.060282394 0.08295169 0.02339852 -0.08347331
0.04325278 0.0545209 0.099207185 -0.024710428 -0.022848755 -0.03065537 -0.2063137 -0.08647986
-0.08892966 -0.053675134 -0.022733329 -0.0037056878 -0.038646232 0.11572236 -0.10714673 -0.043384194
0.11663721 0.1582659 0.11263093 0.06874268 0.08104478 0.012609717 0.09972797 -0.057527773
0.014662792 -0.08890766 -0.0984718 -0.12693933 0.0029790185 -0.05071532 0.13633747 -0.008695188
0.11603966 0.026920538 -0.11779102 0.006572321 0.035192158 -0.042213257 -0.00075705256 0.059106026
0.061241716 0.08136 -0.08780212 0.07088772 -0.0104617765 0.18157497 -0.034751307 0.2520987
0.19772486 0.11855815 -0.0066817 -0.012528383 0.08654208 0.14072843 0.09351349 -0.09229198
-0.048296362 0.025269916 -0.05797345 0.048537023 0.026326919 0.11333081 0.06273314 0.100504406
0.048903275 -0.08276739 0.15092662 -0.084774464 -0.13962081 0.06236929 0.27463853 0.106336355
00000000: ca6f 41be 301f f03d 00d2 a2bc e2d3 9abd
00000010: 81c4 15be 0617 b33c 2da6 dfbd 35bc 913d
00000020: 032e 7bbc 2f93 05be 406d 8e3d 3267 03bd
00000030: 5ca7 343d 3d94 f13c 784c 8abd 4661 53bb
00000040: ecc7 1e3e 2696 153d 1054 253c 40f5 febd
00000050: 2ded 2e3d 2d54 d63a acf7 17bc a62f 683d
00000060: cbcc b43d 056c 333d 2354 a9bb 5e28 3a3e
00000070: fcb2 b63d 1b3a b3bd 55a0 fa3d a946 1ebc
00000080: e903 18bd 6dc4 a4bd 10a7 e4bd 2972 88bd
00000090: 3e8a c7bc 1655 22be 3a9f 043e d191 28be
000000a0: 9d50 c5bc b2eb 343c b320 0ebe 8c2e bbbd
000000b0: 28b2 4ebb ee71 92bd 9dcb 86be 3b40 07bd
000000c0: 3dbe a1bd f665 81bd 22f1 25bd 2c93 2dba
000000d0: 56aa 5c3d 9a3b 1d3d a3aa 193e 6cce 5dbd
000000e0: 3572 94bb e3a4 d73d 4076 f93c fb29 11bd
000000f0: 876c 973d a690 ca3c a415 0c3e 5849 73be
00000100: 6e4e e0bb 74da ba3c 83ed 19be 6ccf 863e
00000110: 99c3 423d c104 18be 81b3 023e 8264 01be
00000120: 4d8a 6cbe 8352 98bd ad85 bbbc 1907 7dbd
00000130: 2dc0 9fbd a7c5 653d ab14 a83d 2cfc dc3d
00000140: d3e6 5f3e d238 19be 1e35 9c3d 44b5 88bc
00000150: f2d2 4dbd 3d7d 283e 8f86 ecbd 63e8 dabd
00000160: 17ef c3bd f7c8 81bd cda2 1b3e adc0 c83b
00000170: c430 77bb bca6 eabd b046 5cbb 361d 0c3e
00000180: b3b1 a8bb e93c 913d 9d5b 8a3d 37fb 253d
00000190: 1ac2 0cbd 50e7 be3a 1672 a23d 07f1 933d
000001a0: c069 5fbe eafb b7bc ed7c cf3d 0dde 0cbd
000001b0: 0490 c8bd e778 30bd 6014 eb3d 8d93 8ebd
000001c0: 308a 153d f7eb 473b 679e 03be 3f08 2d3d
000001d0: 8b14 9c3d 8f20 e53d c363 d23d 5a3a 2f3d
000001e0: 89a3 053e 349f 013e a846 3b3e dcdc e1bc
000001f0: bbdf 553e 81aa d23c 4ef1 233e 7501 a73c
00000200: b962 323d 9ecc e53d 6f82 fa3d 3745 47bd
00000210: 49bd 1ebe 06f3 123c ae6e 79bd 61e6 18bd
00000220: 5947 fb3d 3674 06be ad2d bebd 483b bfbd
00000230: 9eb4 dd3d 1312 abbc dea3 723d 0e11 5dbd
00000240: 5f0f bc3d 501f 963c 1cf1 c2bc 53cf 15bd
00000250: 23b1 983d 9a10 993d 719d 753d 4bf3 b03d
00000260: 6959 343d bc1a 273d ccf3 4dbe 0b68 38be
00000270: 0c9b 673d bd00 f33b 39a8 233e 1548 f83d
00000280: 3417 403e 0f70 52bd 301d 97bd b005 eabd
00000290: 831c 1abe 14b1 93be c964 05be ef79 bbbb
000002a0: 8f0a 9a3d 237d 433d 1087 19be 464b 413d
000002b0: 961b 753d 0987 673d d98b 9a3d b8b9 983d
000002c0: 687c f53d 4dec 633e fd62 053e 009f 103e
000002d0: acea 763d 93e2 a93d 41ae bf3c 0ef4 aabd
000002e0: d429 313d 4f51 5f3d 232d cb3d 866d cabc
000002f0: 502d bbbc f820 fbbc e643 53be 5a1c b1bd
00000300: c120 b6bd 75da 5bbd 3f3b babc 20db 72bb
00000310: 834b 1ebd d8ff ec3d bf6f dbbd a0b3 31bd
00000320: 7ddf ee3d 7510 223e 0cab e63d f6c8 8c3d
00000330: cefa a53d fd98 4e3c 2e3e cc3d 3ea2 6bbd
00000340: 353c 703c 3815 b6bd 95ab c9bd 62fc 01be
00000350: a33b 433b deba 4fbd 0d9c 0b3e 4376 0ebc
00000360: 34a6 ed3d 7688 dc3c 6b3c f1bd a05c d73b
00000370: a725 103d cfe7 2cbd f074 46ba 2919 723d
00000380: 98d8 7a3d 12a0 a63d 99d1 b3bd 952d 913d
00000390: df67 2bbc caee 393e 6357 0ebd 1513 813e
000003a0: 6378 4a3e 9ece f23d 29f2 dabb d943 4dbc
000003b0: f93c b13d 1d1b 103e 0084 bf3d 9403 bdbd
000003c0: 68d2 45bd db02 cf3c 9175 6dbd c2ce 463d
000003d0: 8dab d73c fc19 e83d 3c7a 803d 41d5 cd3d
000003e0: cd4e 483d f381 a9bd 828c 1a3e 3c9e adbd
000003f0: c2f8 0ebe f176 7f3d 6c9d 8c3e e0c6 d93d

pre_layer.4.bias f4 [16]
0.08098953 0.041688297 -0.03282119 -0.02674179 -0.069178596 0.10480025 0.05080329 -0.08311903
0.011808204 0.0410566 0.0060820323 -0.021970877 -0.033218868 0.0025213119 -0.08923816 -0.037335463
00000000: d7dd a53d 59c1 2a3d 836f 06bd 9911 dbbc
00000010: 82ad 8dbd 83a1 d63d 1c17 503d 4f3a aabd
00000020: 3377 413c f72a 283d c94b c73b 45fc b3bc
00000030: 8210 08bd 983c 253b 7fc2 b6bd 12ed 18bd

pre_layer.5.weight f4 [16]
0.99376065 0.9367855 0.95017004 1.0277377 1.0369163 1.023205 0.94565845 1.0799333
1.0505699 0.9589206 1.0332582 1.0430495 0.93893623 1.0097901 0.9750517 1.060475
00000000: 1967 7e3f 2dd1 6f3f 583e 733f e98c 833f
00000010: acb9 843f 62f8 823f ac16 723f 413b 8a3f
00000020: 1379 863f d27b 753f ce41 843f a582 853f
00000030: 205e 703f cd40 813f fd9c 793f a5bd 873f

pre_layer.5.bias f4 [16]
0.12414604 -0.14344937 -0.0025610144 -0.30960262 -0.15563838 -0.20478944 0.09771797 -0.0133627625
0.14380275 -0.06169391 0.004445609 0.028195223 -0.16276413 -0.008773023 -0.0918074 -0.09643316
00000000: 4740 fe3d 64e4 12be b1d6 27bb 3c84 9ebe
00000010: ab5f 1fbe 53b4 51be 5c20 c83d 7def 5abc
00000020: 0741 133e c1b2 7cbd 79ac 913b abf9 e63c
00000030: a4ab 26be babc 0fbc 8505 bcbd c07e c5bd

pre_layer.5.running_mean f4 [16]
-0.49262473 1.0125805 1.0311705 -0.29999313 -0.5280942 0.28239787 0.09553968 -0.7764872
-0.5912945 -0.043769818 0.503794 -0.22893529 -0.61809915 -0.5120838 -0.44017804 -0.80111396
00000000: 4f39 fcbe 3d9c 813f 65fd 833f b398 99be
00000010: 2e31 07bf 7496 903e 4faa c33d ddc7 46bf
00000020: 145f 17bf fb47 33bd a5f8 003f 036e 6abe
00000030: bf3b 1ebf ed17 03bf 045f e1be ce15 4dbf

pre_layer.5.running_var f4 [16]
0.45418558 0.6049121 0.5532145 0.47011083 0.6820807 0.4738518 0.36590248 0.57968843
0.32830703 0.5960304 0.6712226 0.61128646 0.40402383 0.49169436 0.42026594 0.6110812
00000000: 038b e83e 85db 1a3f 779f 0d3f 5eb2 f03e
00000010: d79c 2e3f b49c f23e 9257 bb3e 7666 143f
00000020: dc17 a83e 7395 183f 3fd5 2b3f 457d 1c3f
00000030: 36dc ce3e 5dbf fb3e 192d d73e d16f 1c3f

pre_layer.6.weight f4 [16]
0.011232879 -0.18587951 -0.10375787 -0.07484532 0.0039407727 -0.07512405 -0.026619606 -0.03284517
0.171457 -0.0048443014 -0.26520973 -0.056538057 -0.007816788 -0.05452224 0.0062605776 0.051087007
00000000: 1c0a 383c 3357 3ebe 027f d4bd 8148 99bd
00000010: 9921 813b a3da 99bd 5c11 dabc a888 06bd
00000020: 6c92 2f3e f2bc 9ebb 92c9 87be 7394 67bd
00000030: fc11 00bc b652 5fbd 8825 cd3b 9c40 513d

pre_layer.7.weight f4 [32, 16, 3, 3]
0.16085264 -0.047831684 -0.085450515 0.018417794 -0.038109343 0.042669557 0.19803832 -0.0009974435
-0.036528286 -0.1202745 -0.0016666508 -0.0033535284 0.026700495 0.007534506 0.0279353 0.06303614
-0.086614534 -0.05176734 0.10314143 -0.068446726 -0.15553407 0.07314878 -0.14275749 0.0016419768
-0.064095914 -0.053034436 -0.020789664 0.022003293 -0.0050385767 0.04455917 0.02559771 -0.102195635
-0.032921612 0.061421257 -0.0074784555 -0.14340745 -0.0934301 0.005460086 0.21948259 -0.008985361
-0.08514729 0.028492529 0.004478843 0.07463368 0.0483662 -0.05181033 -0.09025422 0.035347756
0.013275359 -0.016554946 0.06618139 0.053467356 0.046781752 -0.024000682 0.0066470164 0.0060053123
0.046747386 -0.10646206 -0.088259 -0.04501075 0.058083918 0.09491967 0.1266836 -0.045217425
-0.15851092 0.20264933 0.08616845 -0.021102391 0.07317337 0.009218704 0.06368938 0.020111233
0.07483701 -0.042434696 0.0060042827 0.07607065 0.19472814 -0.02659337 -0.11952677 0.06968269
0.042581666 -0.12880002 -0.13412024 0.1531768 0.14406066 -0.014070855 0.07622932 -0.00541594
-0.03710331 -0.097425565 -0.11200074 -0.14659773 -0.04853474 -0.08474964 -0.1015355 0.02469136
-0.12646848 0.1592747 -0.09362119 0.060862362 0.13120177 0.05638201 0.043814357 0.0042705336
-0.032818507 0.06653599 -0.013927821 0.042234458 -0.08291112 0.049430933 -0.10737337 0.09440348
0.09185242 0.005232425 0.09477527 0.060677323 0.115495756 0.060803376 -0.041948184 -0.0035358383
0.07034368 0.06330935 0.032667056 0.0078918515 -0.018140392 0.13357314 -0.093077935 0.04688522
-0.060234725 -0.020410938 -0.0036603778 0.02237509 -0.16793564 0.015494683 0.036426015 0.06907259
-0.15477674 0.010188924 -0.12738003 0.0037706727 -0.1595817 -0.14103986 0.12518364 0.05778938
0.08812905 -0.16486612 -0.075789824 0.07440991 -0.13677973 -0.040445358 0.08843927 0.09334739
-0.108338155 -0.080196984 -0.045007277 -0.0010943806 0.028531142 -0.043591518 0.075873934 -0.04787832
0.03303877 0.03967378 0.049642824 -0.07807167 0.013969787 0.049655817 -0.010120321 0.023671895
-0.012083345 0.029736802 0.045190737 -0.018298088 -0.02045679 0.015540885 0.08760042 0.15172562
0.0486585 -0.013264038 0.15863836 -0.0037635432 0.12957774 -0.08275609 -0.078809604 0.058225263
-0.192472 -0.145152 0.018524187 -0.028235728 -0.13147745 -0.25600806 -0.09961397 -0.017521791
-0.14068258 -0.05183535 0.00423114 -0.148167 -0.045257904 0.004143012 -0.062076088 -0.11344225
-0.11152796 -0.01062859 0.01587196 -0.023944296 0.0009205697 0.06583672 -0.048853487 0.057653405
0.061892137 0.09062998 -0.031022899 0.027587654 0.12255023 -0.014388152 0.0056569194 0.11516751
-0.1181847 -0.013541232 -0.0033026913 0.07967545 -0.006347353 0.0029201945 0.025886973 -0.02851989
-0.017719142 -0.021600628 -0.043372516 0.046686247 -0.061429176 -0.15029131 -0.038765986 0.0154253375
-0.053578768 0.06900253 -0.12542142 -0.0975118 0.0053620106 -0.1354063 -0.046539016 0.012485169
-0.06073052 0.012454696 0.060718715 0.029237507 -0.055217214 -0.07635547 0.02313315 -0.009450136
0.008548341 -0.08443727 -0.09039096 0.03369918 0.06585346 0.014767992 0.020900903 0.098834544
00000000: 8eb6 243e 28eb 43bd ae00 afbd eae0 963c
00000010: 8b18 1cbd 46c6 2e3d 8fca 4a3e a6bc 82ba
00000020: af9e 15bd 7a52 f6bd 8573 daba dfc6 5bbb
00000030: ffba da3c 04e4 f63b 92d8 e43c 1719 813d
00000040: f662 b1bd fe09 54bd d03b d33d cc2d 8cbd
00000050: 5344 1fbe 07cf 953d 052f 12be 9937 d73a
00000060: b844 83bd a33a 59bd 164f aabc 4040 b43c
00000070: a51a a5bb ad83 363d 4ab2 d13c f24b d1bd
00000080: d0d8 06bd db94 7b3d d50d f5bb 67d9 12be
00000090: 4858 bfbd 85ea b23b 0bc0 603e 5637 13bc
000000a0: b461 aebd 2a69 e93c 42c3 923b 8bd9 983d
000000b0: a31b 463d 1237 54bd 34d7 b8bd cfc8 103d
000000c0: e480 593c 3d9e 87bc 1c8a 873d 9600 5b3d
000000d0: 399e 3f3d 149d c4bc 37cf d93b 36c8 c43b
000000e0: 307a 3f3d c808 dabd 22c1 b4bd 315d 38bd
000000f0: 67e9 6d3d 3e65 c23d 58b9 013e e835 39bd
00000100: b050 22be 4e83 4f3e 1679 b03d ecde acbc
00000110: ebdb 953d 0c0a 173c 946f 823d 50c0 a43c
00000120: 2544 993d 01d0 2dbd 93bf c43b eeca 9b3d
00000130: d066 473e 57da d9bc 74ca f4bd ccb5 8e3d
00000140: 1d6a 2e3d 27e4 03be d156 09be 61da 1c3e
00000150: a384 133e 7289 66bc 1e1e 9c3d 3378 b1bb
00000160: a4f9 17bd 0e87 c7bd a560 e5bd b71d 16be
00000170: 5dcc 46bd 3891 adbd d8f1 cfbd 8945 ca3c
00000180: f480 01be e818 233e 77bc bfbd d04a 793d
00000190: c259 063e d3f0 663d af76 333d d5ef 8b3b
000001a0: b36c 06bd 0544 883d 8431 64bc 0afe 2c3d
000001b0: 4ecd a9bd 1778 4a3d 92e6 dbbd 9d56 c13d
000001c0: 1f1d bc3d c374 ab3b 8919 c23d c988 783d
000001d0: 0a89 ec3d f60c 793d dcd1 2bbd 86b9 67bb
000001e0: 5910 903d 55a8 813d e4cd 053d d34c 013c
000001f0: 299b 94bc 66c7 083e a59f bebd b70a 403d
00000200: b0b8 76bd d734 a7bc f3e2 6fbb f74b b73c
00000210: 52f7 2bbe 69dd 7d3c 7233 153d ee75 8d3d
00000220: cb7d 1ebe 72ef 263c e96f 02be 641d 773b
00000230: 6369 23be c16c 10be 2430 003e 8fb4 6c3d
00000240: 017d b43d aad2 28be b237 9bbd 3964 983d
00000250: fc0f 0cbe 08aa 25bd a61f b53d eb2c bf3d
00000260: 65e0 ddbd 513e a4bd 8d59 38bd 5271 8fba
00000270: 24ba e93c 058d 32bd cb63 9b3d 0f1c 44bd
00000280: a953 073d f980 223d 4656 4b3d 0ae4 9fbd
00000290: 89e1 643c e663 4b3d b4cf 25bc 90eb c13c
000002a0: 39f9 45bc 989a f33c ec19 393d dfe5 95bc
000002b0: 0095 a7bc 329f 7e3c d967 b33d f65d 1b3e
000002c0: 234e 473d 6851 59bc 1872 223e c7a5 76bb
000002d0: 07b0 043e 067c a9bd ee66 a1bd 9d7d 6e3d
000002e0: 6117 45be baa2 14be 09c0 973c 9d4e e7bc
000002f0: 06a2 06be 7d13 83be 6902 ccbd dc89 8fbc
00000300: 180f 10be 4e51 54bd 60a5 8a3b 17b9 17be
00000310: 5a60 39bd 1bc2 873b 7f43 7ebd 6954 e8bd
00000320: c568 e4bd 8a23 2ebc ea05 823c d426 c4bc
00000330: 6352 713a 67d5 863d 981a 48bd fa25 6c3d
00000340: 9c82 7d3d 369c b93d bc23 febc 81ff e13c
00000350: 9dfb fa3d 49bc 6bbc ae5d b93b f2dc eb3d
00000360: d20a f2bd 0bdc 5dbc f771 58bb e22c a33d
00000370: 75fd cfbb bc60 3f3b eb10 d43c 8ba2 e9bc
00000380: bc27 91bc cdf3 b0bc 61a7 31bd 143a 3f3d
00000390: 299d 7bbd f7e5 19be 15c9 1ebd 8eba 7c3c
000003a0: 6975 5bbd 3351 8d3d 796e 00be 44b4 c7bd
000003b0: ceb3 af3b f3a7 0abe b29f 3ebd 988e 4c3c
000003c0: 91c0 78bd c80e 4c3c 30b4 783d 7f83 ef3c
000003d0: 722b 62bd 4260 9cbd bb81 bd3c bed4 1abc
000003e0: 570e 0c3c 73ed acbd e51e b9bd 2708 0a3d
000003f0: 2ede 863d 73f5 713c 5f38 ab3c c469 ca3d

pre_layer.7.bias f4 [32]
0.011353408 0.049657017 -0.01917681 0.044598185 0.014651013 -0.0030413542 -0.09565434 -0.045409855
0.043080576 -0.017682992 0.07125334 -0.02656493 -0.0033009313 -0.07480868 -0.021548081 -0.017019525
0.026429161 0.026869554 0.06628296 -0.05588013 -0.031376496 0.013024008 -0.07156078 -0.05329985
0.080646716 -0.011849456 0.08738256 0.06421155 0.07230449 0.083490126 0.0119130835 -0.07805873
00000000: a503 3a3c 2865 4b3d af18 9dbc 96ac 363d
00000010: cd0a 703c 7551 47bb 6ce6 c3bd afff 39bd
00000020: 4275 303d ecdb 90bc 45ed 913d b29e d9bc
00000030: 7054 58bb 4b35 99bd 9a85 b0bc 886c 8bbc
00000040: f881 d83c 8a1d dc3c 5cbf 873d 90e2 64bd
00000050: a484 00bd a662 553c 758e 92bd f250 5abd
00000060: 1b2a a53d 3824 42bc a1f5 b23d 5881 833d
00000070: 6014 943d dffc aa3d 182f 433c 41dd 9fbd

pre_layer.8.weight f4 [32]
1.697696 1.0200434 2.284144 1.576581 1.69076 1.9180887 1.9965475 1.8396691
1.855434 1.674349 1.8801036 1.702522 1.9377445 1.5082499 1.8915105 2.175005
1.6848419 1.7264628 1.8641307 1.5304918 1.8368049 1.6883314 1.7725905 1.8047605
1.7210958 1.7608844 2.1415124 1.4825481 1.6702081 1.7587043 1.5887622 1.8423148
00000000: 1a4e d93f c890 823f 6a2f 1240 68cd c93f
00000010: d36a d83f ee83 f53f de8e ff3f 477a eb3f
00000020: dc7e ed3f 1151 d63f 3ca7 f03f 3eec d93f
00000030: 0308 f83f 550e c13f 041d f23f 4833 0b40
00000040: e6a8 d73f bcfc dc3f d69b ee3f 28e7 c33f
00000050: 6c1c eb3f 3e1b d83f 3fe4 e23f 6402 e73f
00000060: de4c dc3f a964 e13f 8a0e 0940 23c4 bd3f
00000070: 61c9 d53f 391d e13f 8f5c cb3f f9d0 eb3f

pre_layer.8.bias f4 [32]
0.1559689 0.08430195 0.24983686 0.10112335 0.12790143 0.021329882 0.17671797 0.115054496
0.22020024 0.13988255 0.05247136 0.055288766 0.17734994 0.11928071 0.18681182 0.2898281
0.11240023 0.14615597 0.16299094 0.12153524 0.05158195 0.14057945 0.026970198 0.20802827
0.093068294 0.14144097 0.19489779 0.111027576 0.27630904 0.06114251 0.08106426 0.20008947
00000000: 50b6 1f3e 80a6 ac3d 3cd5 7f3e c219 cf3d
00000010: 98f8 023e 01bc ae3c 8ef5 343e b1a1 eb3d
00000020: 2c7c 613e 5f3d 0f3e 35ec 563d 7976 623d
00000030: 399b 353e 7249 f43d 994b 3f3e 5964 943e
00000040: 1732 e63d e9a9 153e 19e7 263e 78e7 f83d
00000050: 9847 533d 0ff4 0f3e 9bf0 dc3c 5d05 553e
00000060: 979a be3d e7d5 103e 4993 473e 6d62 e33d
00000070: 6178 8d3e 9270 7a3d 0505 a63d 41e4 4c3e

pre_layer.8.running_mean f4 [32]
0.059073728 -0.8755602 -0.8205216 -0.17954195 -0.44331005 -0.44735706 -0.04938346 -0.45328513
0.21156299 -0.5672588 0.3528398 -0.5653915 0.8639278 -0.43410793 -0.33886448 -0.6369827
-0.2687725 -0.5361632 0.1650237 -0.62402666 -0.47693717 -0.7367097 -0.210489 -0.32641447
-0.5757867 -0.023045111 0.45442554 -0.8938655 -0.8628779 0.16076562 -0.64390594 -0.2592678
00000000: 4bf7 713d b724 60bf b40d 52bf d8d9 37be
00000010: 89f9 e2be fc0b e5be 5046 4abd fd14 e8be
00000020: f8a3 583e df37 11bf 6ba7 b43e 7fbd 10bf
00000030: 5f2a 5d3f 6543 debe a57f adbe 4c11 23bf
00000040: 8d9c 89be fe41 09bf f9fb 283e 36c0 1fbf
00000050: 1c31 f4be 0299 3cbf 6e8a 57be cc1f a7be
00000060: c266 13bf 1ac9 bcbc 77aa e83e 5fd4 64bf
00000070: 91e5 5cbf be9f 243e 05d7 24bf c0be 84be

pre_layer.8.running_var f4 [32]
0.29801548 0.77594876 0.45818326 0.716376 0.39368272 0.29313728 0.24557866 0.326152
0.234801 1.1745179 0.23603456 0.47342482 0.49758938 1.0101743 0.2359262 0.39117664
0.5880428 0.3764662 0.24987796 0.37723488 0.36815462 0.59146166 0.59095305 0.38078132
0.33720785 0.77395916 0.23883264 0.7962231 0.7859442 0.85107905 0.4147487 0.24627191
00000000: 7c95 983e 94a4 463f ff96 ea3e 6b64 373f
00000010: c890 c93e 1716 963e f978 7b3e 65fd a63e
00000020: ac6f 703e 9a56 963f 0bb3 713e bd64 f23e
00000030: 09c4 fe3e 644d 813f a396 713e 4e48 c83e
00000040: f989 163f 2ec0 c03e 02e0 7f3e ee24 c13e
00000050: c37e bc3e 086a 173f b348 173f c5f5 c23e
00000060: 82a6 ac3e 3022 463f 8b90 743e 47d5 4b3f
00000070: a433 493f 51e0 593f f159 d43e b42e 7c3e

pre_layer.9.weight f4 [32]
-0.095388554 0.2590973 -0.13900913 -0.26086718 -0.38815916 -0.25421497 -0.51126695 -0.19195504
-0.2546671 -0.015536743 -0.28664684 -0.17497626 -0.093796566 0.048092846 -0.1930437 -0.39392373
-0.21737097 -0.4011548 -0.1868069 0.0049664257 -0.51128656 -0.038555097 0.12334931 -0.122741
-0.32408568 -0.29546478 -0.1758768 -0.36796245 -0.12305839 0.19213013 -0.27728242 -0.18740359
00000000: 135b c3bd 67a8 843e 6958 0ebe 6290 85be
00000010: ccbc c6be 7728 82be 64e2 02bf dd8f 44be
00000020: ba63 82be d38d 7ebc 60c3 92be fa2c 33be
00000030: 6a18 c0bd 01fd 443d 3fad 45be 5fb0 c9be
00000040: 7f96 5ebe 2964 cdbe 4f4a 3fbe 66bd a23b
00000050: ade3 02bf f3eb 1dbd 909e fc3d a25f fbbd
00000060: 8fee a5be 2947 97be 0c19 34be 9365 bcbe
00000070: 0a06 fcbd c3bd 443e f6f7 8dbe bae6 3fbe

conv4_1.weight f4 [1, 32, 1, 1]
-0.69145507 -0.18276978 -0.8299875 0.8498517 -0.6225127 -0.59994906 -0.82899815 -0.6200205
-0.8201088 1.0443621 -0.72590953 0.9230905 -0.7389969 0.7253933 -0.75287056 -0.6779378
1.0206846 0.99007344 -0.7391612 -0.61127806 0.80873805 -0.6227512 -0.5925192 -0.6679593
0.76935583 0.8994941 -0.75885755 0.7222704 0.8619202 -0.47876105 0.75117517 -0.72219366
00000000: 3303 31bf 0028 3bbe 107a 54bf e28f 593f
00000010: fe5c 1fbf 4396 19bf 3939 54bf aab9 1ebf
00000020: a6f2 51bf a8ad 853f 35d5 39bf a94f 6c3f
00000030: e72e 3dbf 60b3 393f 20bc 40bf 558d 2dbf
00000040: cba5 823f 7475 7d3f ab39 3dbf b87c 1cbf
00000050: 7509 4f3f 9f6c 1fbf 57af 17bf 61ff 2abf
00000060: 81f4 443f 3f45 663f 7d44 42bf b7e6 383f
00000070: cda6 5c3f 2b20 f5be 044d 403f afe1 38bf

conv4_2.weight f4 [4, 32, 1, 1]
0.004003542 0.1497667 0.0059410483 0.02906808 0.006447328 0.0019961295 0.0027565043 -0.009477657
0.0065337704 -0.029083122 0.0021732599 -0.0041272985 -0.012668534 0.043765295 0.0025307578 0.0017168231
0.020586388 0.010247955 0.0019068193 -0.014348246 0.0012847111 -0.021593798 -0.015326856 -0.004488419
-0.009145365 -0.022078156 0.0042656963 0.0007111221 -0.006441133 -0.058748186 -0.009236017 0.0018459517
0.0032107304 -0.0034691112 0.011575963 -0.010891882 -0.00018776505 0.0006219366 -8.868789e-05 0.009346693
0.0065760943 0.03271334 0.00043838337 -0.010048167 0.011977331 -0.0402957 0.00857811 0.0017998113
0.010020146 0.011541882 -0.00078053016 -0.02791613 0.0033144164 0.016498724 0.014471118 -0.051922183
-0.011200437 -0.0018098161 0.00045664364 -0.022048548 0.052199814 -0.030544894 -0.013658557 0.0072304835
-0.0064238934 0.13545996 0.00523217 0.0105604045 0.007869684 0.00039411412 0.0028208934 -0.0011088141
0.006433679 -0.04570402 0.0007089239 -0.0018828858 0.010841513 0.04760876 -0.0033896298 0.0008524672
-0.0051020556 -0.0074797147 0.0022638661 -0.028268188 0.0033922319 -0.03152616 -0.03853514 0.015914919
0.0038688323 0.008450408 0.0023415473 -0.044207036 0.025890429 -0.019606497 0.0009864585 -0.0012495721
-0.009730416 -0.02335327 0.011418733 -0.035300266 0.001771834 -0.001097589 3.0609408e-05 0.020082245
0.0066988994 0.008801682 -0.00032051085 -0.006572124 0.045123104 -0.034110215 0.0007151865 0.00039588584
-0.024208145 -0.0128922975 -0.00030318435 -0.047068786 0.006111135 0.002941834 -0.016865209 -0.02382298
0.007071475 0.03930684 -0.0019426468 -0.083307385 0.09564897 0.024016298 0.00030594197 0.0034502216
00000000: 2530 833b 715c 193e 20ad c23b 2f20 ee3c
00000010: 1b44 d33b 7fd1 023b 78a6 343b 2d48 1bbc
00000020: 3d19 d63b ba3f eebc 406d 0e3b 4a3e 87bb
00000030: af8f 4fbc 3d43 333d 12db 253b 0607 e13a
00000040: c9a4 a83c 0ae7 273c 3dee f93a e814 6bbc
00000050: c063 a83a 7ae5 b0bc 7e1d 7bbc 9613 93bb
00000060: 71d6 15bc 40dd b4bc 41c7 8b3b 996a 3a3a
00000070: 2410 d3bb f0a1 70bd aa52 17bc dcf3 f13a
00000080: 1e6b 523b 075a 63bb 1ca9 3d3c dd73 32bc
00000090: cce2 44b9 7509 233a f3fd b9b8 df22 193c
000000a0: 477c d73b 6cfe 053d d2d6 e539 11a1 24bc
000000b0: 913c 443c 1b0d 25bd 338b 0c3c a5e7 eb3a
000000c0: 8a2b 243c 291a 3d3c 7e9c 4cba 5eb0 e4bc
000000d0: ae36 593b 5528 873c 4518 6d3c 5bac 54bd
000000e0: 0a82 37bc 5a37 edba ac69 ef39 289f b4bc
000000f0: 79cf 553d 4939 fabc 24c8 5fbc b1ed ec3b
00000100: 867f d2bb 04b6 0a3e a072 ab3b 8c05 2d3c
00000110: d9ef 003c 1aa1 ce39 bdde 383b a155 91ba
00000120: 9cd1 d23b 2334 3bbd 14d7 393a 2acb f6ba
00000130: 9aa0 313c 6701 433d 8d24 5ebb 1b78 5f3a
00000140: 252f a7bb 6518 f5bb 5f5d 143b b092 e7bc
00000150: 3550 5e3b 9321 01bd 06d7 1dbd 0160 823c
00000160: 3c8c 7d3b 9473 0a3c a574 193b 7012 35bd
00000170: 2a18 d43c ce9d a0bc 0e4c 813a afc8 a3ba
00000180: 536c 1fbc 5b4f bfbc a315 3b3c 0397 10bd
00000190: e23c e83a fadc 8fba 9a62 0038 8583 a43c
000001a0: 7182 db3b ee34 103c 3d0a a8b9 f95a d7bb
000001b0: 01d3 383d 27b7 0bbd 5b7b 3b3a e68e cf39
000001c0: 2950 c6bc 373a 53bc b7f4 9eb9 33cb 40bd
000001d0: ea3f c83b c9cb 403b e828 8abc 6928 c3bc
000001e0: d5b7 e73b 3600 213d 69a0 feba 109d aabd
000001f0: 9be3 c33d d4bd c43c d666 a039 1d1d 623b

conv4_2.bias f4 [4]
0.09758991 -0.039618134 -0.1258401 0.033104684
00000000: 38dd c73d a046 22bd 3adc 00be c798 073d
