param/r_net.pth (torch_old, 407436 bytes, 27 tensors)

pre_layer.0.weight f4 [28, 3, 3, 3]
0	0xbc8ca911	-0.01717046
1	0x3e0692fd	0.13142009
2	0x3dbcc15a	0.092165664
3	0xbcda25d5	-0.026629368
4	0xbc8dcb65	-0.0173089
5	0xbda8b133	-0.08236923
6	0xbd20909c	-0.03920041
7	0x3e00c133	0.125737
8	0xbe596dfc	-0.21233362
9	0xbd931423	-0.07181575
10	0xbdaac0a3	-0.08337524
11	0x3e006ced	0.12541552
12	0x3de78f45	0.11306623
13	0xbe3e8025	-0.18603571
14	0x3e2cdb4d	0.16880532
15	0x3e3d5381	0.18488885
16	0xbc48cdd4	-0.0122561045
17	0xbe294580	-0.16530418
18	0x3dea287a	0.114335015
19	0x3e0a627e	0.13514134
20	0x3d977c47	0.07396751
21	0xbe0757e9	-0.13217129
22	0xbde48626	-0.11158399
23	0xbe16c446	-0.1472331
24	0x3e33edeb	0.17571227
25	0x3c6a2d39	0.0142930085
26	0xbd29a83e	-0.041420214
27	0xbd3d8c22	-0.04627622
28	0x3c306a61	0.01076755
29	0xbc6e094a	-0.014528582
30	0x3df1ab8e	0.118002996
31	0x3d929302	0.07156946
32	0x3d8067a6	0.06269769
33	0x3e18848a	0.1489431
34	0xbdc9bdbd	-0.09850643
35	0xbc8287c6	-0.015933882
36	0xbdf48e60	-0.119412184
37	0xbd96aac7	-0.07356792
38	0xbe344c77	-0.17607294
39	0xbc899863	-0.016796296
40	0x3da3c7ea	0.07997115
41	0x3c8c528e	0.017129209
42	0x3dd9d319	0.10635967
43	0xbdcb91d6	-0.099399254
44	0xbdac82ed	-0.084234096
45	0x3d9b5f7b	0.07586571
46	0xbe2f6c4c	-0.17131156
47	0x3e3c7340	0.1840334
48	0x3e5746d4	0.21023113
49	0x3e41d0a1	0.18927242
50	0x3db0e16b	0.08636745
51	0x3d66c778	0.056342572
52	0x3e48a01e	0.1959233
53	0x3e5e72b9	0.2172345
54	0x3d94b288	0.07260615
55	0x3c05c776	0.008165231
56	0xbd063342	-0.032763727
57	0x3d4baf41	0.049727682
58	0xbde876e5	-0.11350802
59	0xbe026d19	-0.1273693
60	0xbe2047ce	-0.15652391
61	0x3d92fe51	0.07177413
62	0xbe66d7c8	-0.22543252
63	0x3e1010c0	0.1406889
64	0x3e3a7b30	0.18211055
65	0xbd7f3456	-0.06230577
66	0x3ca74e11	0.020422967
67	0x3e15e271	0.14637162
68	0x3e4f2e46	0.20232496
69	0x3c51651c	0.012780454
70	0xbcb5ad4f	-0.022177367
71	0x3d79746f	0.060902055
72	0xbe26e928	-0.1629988
73	0xbbdbf99c	-0.0067131054
74	0x3d517cd5	0.05114444
75	0xbd82204e	-0.06353818
76	0xbdf8d347	-0.12149673
77	0x3c19f883	0.009397629
78	0x3d2be178	0.04196307
79	0xbd7d9cd7	-0.061917152
80	0x3e14395a	0.14475003
81	0x3d9ef352	0.077612534
82	0x3e26e609	0.16298689
83	0x3d59467c	0.053045735
84	0x3e0110e4	0.126041
85	0x3e0321e6	0.128059
86	0x3d5db024	0.05412306
87	0xbe6a3d75	-0.22875006
88	0xbe33c765	-0.17556532
89	0xbe1299c8	-0.14316475
90	0x3e100056	0.14062628
91	0xbda65870	-0.08122337
92	0x3d15a33f	0.036532637
93	0x3d2f8b1f	0.042857286
94	0xbd455516	-0.048176847
95	0x3dbc6bd7	0.09200256
96	0xbd524faa	-0.051345505
97	0xbe22748d	-0.15864773
98	0xbe134d02	-0.14384845
99	0xbe15ec5b	-0.14640944
100	0x3e0d5846	0.13803205
101	0x3da01096	0.078156635
102	0xbdb2ec4c	-0.08736476
103	0x3d74cd79	0.059766266
104	0x3db0a36b	0.086249195
105	0xbd26ddd7	-0.040738907
106	0xbb138e45	-0.002251522
107	0x3aa159b5	0.001231006
108	0x3d61630b	0.055026095
109	0xbd9d5102	-0.07681467
110	0xbd38e29b	-0.045137983
111	0x3daf5d0c	0.08562669
112	0xbdd7e682	-0.10542013
113	0xbb8b8efb	-0.004258988
114	0x3d75da23	0.060022485
115	0x3db24be3	0.087058805
116	0xbe159826	-0.14608821
117	0x3bdd7436	0.006758238
118	0x3db7c745	0.089735545
119	0xbc988669	-0.01861878
120	0x3e02c69d	0.12771077
121	0xbe368a30	-0.17826152
122	0xbe1f0c31	-0.15531994
123	0x3d3f4cd3	0.046704125
124	0x3e4d36b2	0.20040396
125	0xbd2db8ae	-0.042412452
126	0x3d370fa6	0.044692658
127	0x3d203139	0.039109442
128	0xbd27f02a	-0.041000523
129	0xbdc1e8cb	-0.0946823
130	0xba1bad17	-0.0005938573
131	0xbe45deb6	-0.19323239
132	0xbcbec62a	-0.023287851
133	0x3e01968d	0.12655087
134	0x3e399e53	0.18126802
135	0xbe17c9c6	-0.14823064
136	0xbd7ebc68	-0.062191397
137	0x3e084d3b	0.13310711
138	0xbe1b748c	-0.15181178
139	0xbdbd7fe4	-0.09252909
140	0x3e00c403	0.12574773
141	0xbdb188f4	-0.086687
142	0x3dda440d	0.10657511
143	0x3d2a95a5	0.04164662
144	0xbcdf6f56	-0.027274769
145	0x3e378227	0.17920743
146	0xbd248083	-0.04016162
147	0xbdd8ddcb	-0.10589179
148	0x3e1f4bce	0.15556261
149	0x3dc439d2	0.09581341
150	0xbe0b3217	-0.13593327
151	0xbe338f45	-0.17535122
152	0x3dd6e4d0	0.10492861
153	0x3e1845fe	0.1487045
154	0x3d51f670	0.05126041
155	0xbe2103c5	-0.15724094
156	0xbcce7a05	-0.025204668
157	0x3d5be491	0.053684775
158	0x3d0ade41	0.033903364
159	0xbdaccb0a	-0.08437164
160	0x3de15527	0.1100257
161	0x3e24a630	0.1607902
162	0xbe549b1c	-0.20762295
163	0x3e445e74	0.19176656
164	0x3db6deca	0.089292124
165	0x3cf9900a	0.030464191
166	0x3c5613c3	0.013066235
167	0x3db557d1	0.0885464
168	0xbd0307ec	-0.031989977
169	0x3e5ad919	0.21371879
170	0x3c313e3a	0.010818059
171	0xbdfc5c0d	-0.12322245
172	0x3e3cf87f	0.18454169
173	0xbde319f2	-0.11088933
174	0xbe326b08	-0.17423642
175	0x3e1d547d	0.15364261
176	0x3d127d33	0.03576393
177	0x3e03a558	0.12856042
178	0xbe0c9ea2	-0.13732389
179	0x3e238cd0	0.15971684
180	0x3c593961	0.013258309
181	0xbd9643e9	-0.073371716
182	0xbcdc5a08	-0.026898399
183	0x3e158ff1	0.1460569
184	0x3cfc2c75	0.030782918
185	0xbc1a6b8a	-0.009425053
186	0xbda64da2	-0.08120276
187	0x3ccd1375	0.025033692
188	0xbd9d8412	-0.07691206
189	0x3e2c88b7	0.16849028
190	0xbe4735c2	-0.194541
191	0xbe545015	-0.20733674
192	0x3ca58e4c	0.020209454
193	0xbdf04e21	-0.11733652
194	0xbe2f44b1	-0.17116047
195	0xbe1a596d	-0.15073176
196	0x3d6dc92a	0.058053173
197	0x3c9dea5a	0.019276787
198	0x3e549fc9	0.20764078
199	0x3e4bee88	0.19915211
200	0x3e31a5cd	0.17348404
201	0xbd330fdf	-0.043716308
202	0x3da162cf	0.07880174
203	0xbd4acc91	-0.049511496
204	0x3d3b580b	0.04573826
205	0x3d3642f5	0.04449745
206	0xbdae53a4	-0.08512047
207	0xbdc8bf8e	-0.09802161
208	0xbd760628	-0.060064465
209	0x3d14c217	0.03631791
210	0xbdc2ac2e	-0.09505497
211	0x3d670efa	0.056410767
212	0x3da56e48	0.08077675
213	0xbd8795a0	-0.066203356
214	0x3e375fa2	0.17907575
215	0xbde028b0	-0.109452605
216	0xbd3178eb	-0.043328207
217	0xbe4b4f85	-0.19854553
218	0xbd8b7516	-0.06809442
219	0xbcc94d3f	-0.024572967
220	0xbd9b1c75	-0.07573787
221	0x3d97a4a9	0.07404453
222	0x3dbe0ded	0.0928
223	0x3da1e0da	0.07904215
224	0x3cfbd380	0.0307405
225	0xbd942ed7	-0.072354965
226	0x3d06d42e	0.032917194
227	0x3d285c15	0.04110344
228	0x3ddaf313	0.10690894
229	0xbcb52df1	-0.022116633
230	0x3e45be1c	0.19310802
231	0x3a6ce617	0.00090369716
232	0x3c05eb27	0.0081737405
233	0xbe196d0a	-0.14983001
234	0xbd2cda93	-0.042200636
235	0xbe3b5143	-0.18292718
236	0x3e769487	0.24080096
237	0xbd98a111	-0.07452596
238	0xbd96def5	-0.073667444
239	0x3d1f3389	0.038867507
240	0xbda6bc41	-0.08141375
241	0xbda18ea5	-0.078885354
242	0x3e4f6897	0.20254742
243	0xbcc0ef87	-0.023551716
244	0x3d51fb7f	0.051265236
245	0xbe41d153	-0.18927507
246	0x3dfaa840	0.122391224
247	0x3dc853be	0.097815976
248	0xbe05424d	-0.13013573
249	0x3e1da050	0.15393186
250	0x3e1f2966	0.15543136
251	0xbe487e8b	-0.19579522
252	0xbdd2a5cb	-0.10285529
253	0x3e2eed4c	0.17082709
254	0xbdfe03ca	-0.124030665
255	0xbd225c65	-0.039638896

pre_layer.0.bias f4 [28]
0	0xbdd498f3	-0.10380735
1	0xbda19f67	-0.07891732
2	0xbe34232b	-0.1759154
3	0x3d36e2a5	0.04464974
4	0xbcfb857a	-0.030703295
5	0x3db0233e	0.08600472
6	0x3aea09ea	0.0017855738
7	0xbe241ed1	-0.1602738
8	0x3dd1fd82	0.10253431
9	0x3bca4de1	0.0061738347
10	0xbdfd6b1b	-0.12373944
11	0x3ce17487	0.027521385
12	0xbd149477	-0.0362744
13	0xbe2d2bd0	-0.16911244
14	0xbe2e9802	-0.17050174
15	0xbdb5bcf2	-0.08873929
16	0xbe3b261a	-0.18276253
17	0x3e4e77fe	0.20162961
18	0x3d4caed4	0.049971417
19	0xbcc22b3f	-0.023702262
20	0x3de5cd1b	0.112207614
21	0xbc061864	-0.008184526
22	0x3e0898c2	0.13339522
23	0x3cc644cb	0.024202725
24	0xbe1b9fab	-0.15197627
25	0x3de53b9b	0.111930095
26	0x3d7244f7	0.0591478
27	0xbd8beb73	-0.06832018

pre_layer.1.weight f4 [28]
0	0x3f82a5e3	1.0206875
1	0x3f701254	0.93777966
2	0x3f84618d	1.034227
3	0x3f95b942	1.1697161
4	0x3f785e22	0.97018635
5	0x3f702f71	0.9382239
6	0x3f65590c	0.89589
7	0x3f8114cd	1.0084473
8	0x3f73e3b4	0.9526932
9	0x3f7b0927	0.9806084
10	0x3f77afda	0.96752703
11	0x3f7e32a2	0.9929601
12	0x3f76caba	0.96403086
13	0x3f727de1	0.94723326
14	0x3f83f77c	1.0309901
15	0x3f781f02	0.96922314
16	0x3f642bc2	0.8912927
17	0x3f46a330	0.77592754
18	0x3f80f11d	1.0073582
19	0x3f772ec0	0.9655571
20	0x3f69ed47	0.9137768
21	0x3f794646	0.97372854
22	0x3f78bb1a	0.97160494
23	0x3f7492c0	0.9553642
24	0x3f866fc6	1.050286
25	0x3f8256f8	1.0182791
26	0x3f8a6e08	1.0814829
27	0x3f93c551	1.1544591

pre_layer.1.bias f4 [28]
0	0x3e379ac4	0.17930132
1	0xbdb890c4	-0.09011987
2	0x3d5aa812	0.05338294
3	0x3d9a4d2b	0.0753425
4	0x3e5f2ba2	0.21793988
5	0xbd17618d	-0.036958266
6	0xbd5b99d6	-0.053613506
7	0x3d572545	0.052525777
8	0x3cba8b82	0.0227716
9	0x3b295978	0.002584068
10	0xbdbcb5f6	-0.09214394
11	0x3d9435b4	0.072368056
12	0xbe08e96f	-0.13370298
13	0xbd59fcfd	-0.053219784
14	0xbb67e3a6	-0.0035383492
15	0x3d97f3b2	0.07419528
16	0xbd90b37a	-0.070654824
17	0x3d6612d3	0.056170296
18	0x3d9a3cc7	0.075311236
19	0xbd78be05	-0.06072809
20	0xbd15a23c	-0.036531672
21	0x3c621de8	0.0138010755
22	0xbe0ccdef	-0.13750432
23	0xbd970c6b	-0.073754154
24	0x3c249547	0.010045356
25	0x3d0e9c53	0.03481705
26	0x3c838635	0.016055206
27	0xbc6b731f	-0.014370709

pre_layer.1.running_mean f4 [28]
0	0xbe08e85c	-0.13369888
1	0xbe779551	-0.24178053
2	0xbe7e282e	-0.24820015
3	0x3d4fa609	0.050695453
4	0xbd623bb9	-0.055232737
5	0x3c2f4012	0.010696428
6	0x3cb12e55	0.021628538
7	0xbe7c340f	-0.24629234
8	0x3dbb31be	0.09140347
9	0xbc9fe598	-0.019518659
10	0xbe1b1500	-0.1514473
11	0x3ce58e24	0.02802188
12	0xbd886747	-0.066603236
13	0xbda9cf83	-0.08291533
14	0xbe1647ef	-0.14675878
15	0xbdd90c46	-0.10598044
16	0xbe67a4fb	-0.22621529
17	0x3e2ddee2	0.16979554
18	0xbc208e30	-0.009799525
19	0xbcdc74b8	-0.026911125
20	0x3e79bb89	0.24387945
21	0x3e35f37f	0.17768668
22	0x3e501bf2	0.2032316
23	0x3b2959ce	0.0025840881
24	0xbdfecbf4	-0.12441245
25	0x3dd6dd26	0.104913995
26	0x3d7d2b28	0.061808735
27	0xbd6c90c6	-0.057755254

pre_layer.1.running_var f4 [28]
0	0x3cc45ea0	0.023970902
1	0x3e83ed0c	0.2576679
2	0x3c74481d	0.014909771
3	0x3d0de3d6	0.03464111
4	0x3cc9ae54	0.024619259
5	0x3d52d6ea	0.05147449
6	0x3db00a31	0.08595694
7	0x3ce09773	0.027415967
8	0x3cb6f5f2	0.022334073
9	0x3cac1c23	0.02100951
10	0x3d82b684	0.06382468
11	0x3ca14d63	0.019690221
12	0x3d2c977b	0.04213665
13	0x3d7ea1f1	0.062166158
14	0x3d4c9ff5	0.049957234
15	0x3c025c38	0.007956557
16	0x3d2848ce	0.041085057
17	0x3c969fea	0.0183868
18	0x3d169992	0.03676755
19	0x3dfc45ff	0.12318038
20	0x3e17a0f1	0.14807488
21	0x3e0937b3	0.13400154
22	0x3d0688ab	0.03284518
23	0x3d8bd550	0.068277955
24	0x3cf46a74	0.029835917
25	0x3ce8378e	0.028346803
26	0x3ca47ff5	0.020080546
27	0x3c8ead19	0.017416524

pre_layer.2.weight f4 [28]
0	0x3ebe00e0	0.37110043
1	0x3e06f1d7	0.13178192
2	0x3cfa922f	0.030587284
3	0x3e92ff96	0.28710622
4	0x3eb35351	0.35024503
5	0x3e048b8f	0.12943862
6	0x3e49df63	0.19714122
7	0x3cabfecb	0.020995518
8	0x3e611244	0.21979624
9	0x3e4ecf62	0.20196298
10	0x3e4fc3e1	0.20289566
11	0x3e9631ef	0.2933497
12	0x3dc656e1	0.096845396
13	0x3e5fe74b	0.21865575
14	0x3e6befe3	0.23040728
15	0x3e881925	0.26581684
16	0x3e81b1d8	0.25330997
17	0x3ebf3877	0.37347767
18	0x3e541970	0.20712829
19	0x3e984f2d	0.29747906
20	0x3df677ea	0.120345905
21	0x3e60f0b8	0.21966827
22	0x3e16b7a2	0.14718488
23	0x3e2d21a7	0.16907369
24	0x3e7bf7ab	0.24606197
25	0x3eb400dd	0.3515691
26	0x3e896cbc	0.2684077
27	0x3e7a3231	0.24433209

pre_layer.4.weight f4 [48, 28, 3, 3]
0	0x3d9db635	0.07700769
1	0xbd45b407	-0.04826739
2	0xbc2256bc	-0.009908374
3	0x3c0a772c	0.008451264
4	0xbdb1b457	-0.08676975
5	0xbcae0706	-0.021243583
6	0xbd171786	-0.036887668
7	0x3a337f0b	0.0006847239
8	0xbd4aa514	-0.049473837
9	0xbd77dd68	-0.060513884
10	0xbc43d22c	-0.011951964
11	0x3c2858a9	0.0102750445
12	0x3c992674	0.018695094
13	0x3b95b77b	0.0045689917
14	0x3d0d3cb4	0.03448172
15	0x3d5e6848	0.05429867
16	0x3d841034	0.06448403
17	0xbd451bb9	-0.04812214
18	0xbdab1b8c	-0.083548635
19	0xbdbe0989	-0.092791624
20	0xbcc43eeb	-0.023955783
21	0x3ace749d	0.0015751306
22	0xbe022148	-0.12708008
23	0xbd4b7876	-0.049675427
24	0x3d04e595	0.03244551
25	0xbdaa5151	-0.08316291
26	0xbcdcff3b	-0.026977172
27	0xbd8e5392	-0.069495335
28	0xbdeb019a	-0.11474915
29	0x3c843c94	0.016142167
30	0xbd911ffb	-0.07086178
31	0xbdaf2151	-0.085512765
32	0xbd41bc8b	-0.04729895
33	0xbda10890	-0.07862961
34	0xbe4675fe	-0.19380948
35	0xbdc838cb	-0.097764574
36	0xbaffdbc1	-0.0019520448
37	0xbdb01b70	-0.08598983
38	0xbcc0354f	-0.02346292
39	0x3c13a70e	0.009011997
40	0xbd0eb1fd	-0.03483771
41	0x3d17bc59	0.037044857
42	0x3d9240f5	0.07141296
43	0x3de1c433	0.1102375
44	0x3d1f9ee2	0.03896988
45	0xbd7f8b10	-0.06238848
46	0xbcf0328d	-0.02932098
47	0xbc95caf9	-0.018285261
48	0xbdadbad5	-0.08482901
49	0x3cae5b2d	0.02128371
50	0x3c05ee05	0.008174424
51	0xbc344d40	-0.011004746
52	0xbcaac902	-0.020847801
53	0x3d3873fa	0.04503248
54	0xbd40328b	-0.0469232
55	0xbdad97a0	-0.08476186
56	0xbc14a52c	-0.009072583
57	0x3d123676	0.03569647
58	0xbd898b40	-0.06716013
59	0x3d19c0e9	0.03753749
60	0xbccfe911	-0.02537969
61	0xbca4dbb3	-0.020124292
62	0x3d6ecc86	0.058300517
63	0x3c91f450	0.017816693
64	0xbbe89d45	-0.007098826
65	0xbd514a61	-0.051096324
66	0xbd17def7	-0.03707787
67	0xbdb7d378	-0.08975881
68	0xbd852160	-0.065005064
69	0xbbd41db6	-0.0064732684
70	0x3d826c03	0.06368258
71	0xbd22a090	-0.039703906
72	0xbdcef5c0	-0.10105467
73	0x3d0bb775	0.034110505
74	0x3d77f741	0.060538534
75	0x3be8472d	0.007088563
76	0x3d3a9f63	0.04556216
77	0x3d699d70	0.05703491
78	0x3d84f93e	0.06492852
79	0x3c02c247	0.00798089
80	0x3da2713a	0.079317525
81	0xbd8b4605	-0.068004645
82	0xbd77e41b	-0.060520273
83	0x3cbae3ef	0.022813765
84	0xbda5cf01	-0.080961235
85	0xbc864218	-0.016388938
86	0x3d0391cb	0.03212146
87	0x3cbdf45f	0.023187814
88	0x3d53bc6e	0.051693372
89	0xbcf2badd	-0.029630119
90	0xbd854363	-0.065069936
91	0xbd0f87d2	-0.035041638
92	0xbd9ac6c1	-0.075574405
93	0xbbea1f0e	-0.0071448153
94	0xbc246167	-0.010032988
95	0x3bb4ed45	0.005521449
96	0x3d28e559	0.041234348
97	0xbd816de0	-0.06319785
98	0x3b9f33e2	0.00485848
99	0xbd3050b8	-0.04304573
100	0xbd9f3329	-0.0777343
101	0xbd838790	-0.06422341
102	0xbdaf70e0	-0.08566451
103	0xbd32438d	-0.043521453
104	0x3d3a5332	0.045489497
105	0xbd14ffbe	-0.036376707
106	0xbc0d31aa	-0.008617798
107	0xbd2114ab	-0.03932635
108	0xbd7300d7	-0.059326973
109	0xbd8d8187	-0.06909471
110	0xbd11a943	-0.03556181
111	0xbd97a668	-0.07404786
112	0xbc6efe74	-0.014587034
113	0xbd8d335b	-0.06894561
114	0xbd126bc0	-0.03574729
115	0xbdc856e6	-0.097821996
116	0xbdedaa96	-0.11604802
117	0xbd0c63e8	-0.034274966
118	0xbd443432	-0.04790134
119	0x3cbb65ba	0.022875655
120	0xbd93bb45	-0.07213453
121	0xbcaca0e0	-0.021072805
122	0xbcee9fd3	-0.029128945
123	0xbd3f8343	-0.04675604
124	0xbca5858c	-0.020205282
125	0xbcc81e16	-0.024428409
126	0x3c81a5ae	0.015826073
127	0xbcef8204	-0.029236801
128	0xbd2b2c9b	-0.041790586
129	0x3d4217ac	0.047385857
130	0x3cd4164a	0.025889535
131	0xbcb2af33	-0.021812057
132	0xbd172ebe	-0.03690981
133	0x3d9f9af0	0.07793224
134	0xbcc473c5	-0.023980984
135	0xbd48b47b	-0.049000245
136	0xbd27c593	-0.040959906
137	0xbd4182bc	-0.04724382
138	0x3d854476	0.065071985
139	0x3c8ae04e	0.01695266
140	0x3d96f6c0	0.073712826
141	0x3d305fa3	0.043059956
142	0x3d2b567a	0.041830517
143	0x3d81b6c3	0.06333687
144	0xba872d4a	-0.001031318
145	0xbd95823c	-0.07300231
146	0xbde1e3c3	-0.1102977
147	0x3d0b9e3d	0.034086455
148	0xbd0914c3	-0.033467066
149	0xbc28fd67	-0.010314322
150	0xbdad726c	-0.0846909
151	0xbd9626b1	-0.073315986
152	0xbd15a0c7	-0.036530282
153	0x376bb831	1.4049977e-05
154	0xbd3cb2dc	-0.04606901
155	0xbd18f305	-0.037341136
156	0x3ba91c43	0.0051608398
157	0xbdb84842	-0.08998157
158	0xbdced287	-0.10098749
159	0xbcbb31f4	-0.022850968
160	0xbd6642ea	-0.056216158
161	0xbd515842	-0.05110956
162	0xbe01a246	-0.12659559
163	0xbd5adebe	-0.05343508
164	0x3d44600d	0.047943164
165	0xbd4bc266	-0.04974594
166	0x3ca81faf	0.02052292
167	0x39a80825	0.00032049525
168	0x3c8adbc0	0.016950488
169	0xbc8191d8	-0.015816614
170	0xbb1a3220	-0.0023528412
171	0x3cb2f1ba	0.02184378
172	0xbbc41f6b	-0.0059851906
173	0xbd9b91de	-0.07596181
174	0xba0b2c6f	-0.00053090503
175	0xbd82b6c0	-0.06382513
176	0x3aaaaa56	0.0013020735
177	0xbba0dee4	-0.004909383
178	0xbcd5da20	-0.026104987
179	0x3c0f2acd	0.008738232
180	0x3c4e439e	0.012589363
181	0x3d62b6ee	0.055350237
182	0xbc3bbca0	-0.011458546
183	0x39cc1c4e	0.00038931
184	0xbcee6f81	-0.029105904
185	0x3d7a88ef	0.061165746
186	0xbd1a695f	-0.037698146
187	0xbd214a4f	-0.039377507
188	0xbb52e987	-0.003218265
189	0x3c7f5ced	0.01558612
190	0x3d58e72a	0.05295483
191	0xbb3363c8	-0.0027372707
192	0x3b7f1834	0.0038924338
193	0xbd437d7d	-0.047727097
194	0xbd35f45e	-0.0444225
195	0xbd903952	-0.07042183
196	0xbd6c4efc	-0.057692513
197	0x3c110a49	0.00885255
198	0x3c554beb	0.013018589
199	0x3d095f38	0.033538073
200	0x3d42ee47	0.04759052
201	0xbd7d214a	-0.061799325
202	0xbd0b0b46	-0.033946298
203	0xbc98da79	-0.018658863
204	0xbd9bb913	-0.076036595
205	0xbd81834f	-0.06323873
206	0x3cf87c7c	0.030332796
207	0xbc02294c	-0.007944416
208	0xbd2d0f81	-0.042251114
209	0xbcd9b9de	-0.026577886
210	0xbba9a88c	-0.005177563
211	0xbcad777e	-0.021175142
212	0xbba9aa74	-0.0051777903
213	0x3c526d34	0.012843419
214	0x3d02cf4f	0.031935986
215	0x3cdb1e35	0.026747802
216	0xbd8a45ac	-0.0675157
217	0xbcaa910e	-0.02082112
218	0xbc89ec86	-0.016836416
219	0xbd2153ee	-0.039386682
220	0xbbd30490	-0.006439753
221	0x3d1c810a	0.038209
222	0xbcf56dae	-0.029959526
223	0x3d0b9c5d	0.034084667
224	0x3daab58f	0.08335411
225	0xbd7b1579	-0.061299775
226	0xbc8253d5	-0.015909115
227	0xbd22043a	-0.039554812
228	0xbc31ac85	-0.0108443545
229	0xbd26796e	-0.040643148
230	0x3d1e7abe	0.038691275
231	0xbd2373fa	-0.039905526
232	0x3cb1a100	0.021683216
233	0x3cdbf515	0.026850263
234	0x3cb9b9c1	0.022671582
235	0x3c7ed377	0.015553347
236	0xbd8fa45a	-0.070137694
237	0xbd1422aa	-0.03616587
238	0xbd0f4f9f	-0.034988042
239	0xbd5aa87a	-0.053383328
240	0x3dd2d574	0.10294619
241	0x3dd41cf0	0.10357082
242	0xbc630ab6	-0.013857534
243	0x3ce25599	0.027628707
244	0xbd75e013	-0.060028147
245	0x3cd17184	0.025566824
246	0xbde4b998	-0.11168212
247	0xbdb9a5d6	-0.09064834
248	0xbd3ccaf4	-0.04609199
249	0xbd9d203e	-0.07672165
250	0xbddbfb5b	-0.107413016
251	0xbd4d4a60	-0.050119758
252	0xbe098021	-0.13427784
253	0xbd06266f	-0.032751497
254	0x3d8760b5	0.06610242
255	0x3d99c11d	0.075075366

pre_layer.4.bias f4 [48]
0	0x3d1bced6	0.03803905
1	0xbc1e2055	-0.009651263
2	0x3c9479f4	0.018124558
3	0xbd89b81c	-0.06724569
4	0x3c07d8b1	0.008291409
5	0xbb6964a7	-0.0035612972
6	0xbcf284fd	-0.02960443
7	0xbd12e4e5	-0.035862822
8	0xbd1c1d58	-0.038113922
9	0x3d11e754	0.035621002
10	0xbc406b79	-0.0117443735
11	0x3c504998	0.012712859
12	0xbd43f407	-0.047840144
13	0xbd21d497	-0.039509382
14	0xbd392e62	-0.04521025
15	0xbc886b70	-0.016652793
16	0x3d7197ad	0.05898254
17	0x3c69bac9	0.014265724
18	0xbd63d9e3	-0.055627715
19	0xbd6e1244	-0.05812289
20	0xbd65396e	-0.055962972
21	0x3c6d9690	0.014501229
22	0x3b8d984e	0.0043211346
23	0xbd23346b	-0.03984491
24	0xbca57636	-0.020197969
25	0x3d400d03	0.04688741
26	0xbcd4319c	-0.025902562
27	0x3d4bbcd8	0.049740642
28	0x3d16e5ce	0.036840253
29	0xbd61a0a4	-0.05508484
30	0xbc712e66	-0.014720535
31	0xbca33317	-0.019921822
32	0x3b64af8f	0.003489468
33	0x3b6bd329	0.0035984016
34	0xbc0f6ad9	-0.008753502
35	0xbd15bec7	-0.036558893
36	0xbd12ee88	-0.035872012
37	0xbd661a3d	-0.056177367
38	0x3d0af2af	0.033922847
39	0x3d29cada	0.04145322
40	0xbce0fd88	-0.027464643
41	0xbc7e37da	-0.015516246
42	0x3d2bc42f	0.041935142
43	0xbd568842	-0.05237604
44	0xbce20684	-0.027590998
45	0xbd5e7d33	-0.054318618
46	0xbc6659b8	-0.014059477
47	0xbd13094c	-0.035897538

pre_layer.5.weight f4 [48]
0	0x3f8687e4	1.051022
1	0x3f816d78	1.0111532
2	0x3f796645	0.97421676
3	0x3f82e0a7	1.0224808
4	0x3f82eaf6	1.0227954
5	0x3f867c29	1.0506641
6	0x3f838cc6	1.0277336
7	0x3f7200a4	0.9453223
8	0x3f83aef0	1.0287762
9	0x3f7e3819	0.9930435
10	0x3f828355	1.0196329
11	0x3f83c690	1.0294971
12	0x3f84a0c0	1.0361557
13	0x3f7d995d	0.9906214
14	0x3f8729ef	1.0559672
15	0x3f837593	1.0270256
16	0x3f8c3605	1.0953985
17	0x3f87672b	1.0578359
18	0x3f7109d5	0.9415563
19	0x3f8028e5	1.001248
20	0x3f6dcaae	0.9288739
21	0x3f81fc4e	1.0155122
22	0x3f83ad01	1.0287172
23	0x3f8079dd	1.003719
24	0x3f7cdd31	0.9877501
25	0x3f87059e	1.0548589
26	0x3f8a6011	1.0810567
27	0x3f8b4601	1.0880738
28	0x3f7d9d25	0.9906791
29	0x3f7963f4	0.9741814
30	0x3f73ccf4	0.9523461
31	0x3f81123c	1.008369
32	0x3f7bebbc	0.9840658
33	0x3f6f511f	0.93483156
34	0x3f8162d9	1.0108291
35	0x3f6effdb	0.93359154
36	0x3f7af5ff	0.9803161
37	0x3f837070	1.0268688
38	0x3f85e8e8	1.0461702
39	0x3f7f600e	0.9975594
40	0x3f79b3b1	0.9753981
41	0x3f7bb3a4	0.98320985
42	0x3f7dad61	0.9909268
43	0x3f7806e8	0.9688554
44	0x3f7d4978	0.9894023
45	0x3f7ec9a0	0.99526405
46	0x3f76d8a3	0.9642431
47	0x3f79c217	0.9756178

pre_layer.5.bias f4 [48]
0	0xbd955756	-0.07292049
1	0xbd8ea098	-0.069642246
2	0xbdabde32	-0.0839199
3	0x3d653a11	0.05596358
4	0x3d4ff171	0.050767366
5	0xbe38d5bc	-0.18050283
6	0xbd0b0492	-0.033939905
7	0xbd84f6e1	-0.06492401
8	0xbca9917d	-0.020699257
9	0x3e0d6421	0.13807727
10	0x3ce5e09f	0.02806121
11	0xbcd16b72	-0.02556393
12	0xbd189dc3	-0.03725983
13	0xbe24a2b0	-0.16077685
14	0xbc178c21	-0.009249718
15	0xbd8cf585	-0.06882767
16	0xbd2c6cd6	-0.04209598
17	0xbdbac0e6	-0.09118824
18	0xbdb56d41	-0.08858729
19	0xbde9b784	-0.11411956
20	0xbc0024a4	-0.007821236
21	0x3d8c4e23	0.06850841
22	0xbd3458ee	-0.044030122
23	0xbce1a0f5	-0.02754257
24	0xbdd79323	-0.10526111
25	0xbdcf439e	-0.10120319
26	0x3c33f362	0.01098332
27	0xbe08d6f1	-0.13363244
28	0xbcc19d20	-0.023634493
29	0xbe0a0a3c	-0.13480467
30	0xbda2cb4c	-0.07948932
31	0xbdfe976c	-0.12431225
32	0xbe1c0948	-0.15237916
33	0xbcdcea47	-0.02696718
34	0xbcd4ec8a	-0.025991697
35	0xbda5d54b	-0.08097323
36	0xbda1a852	-0.07893433
37	0xbd4a1159	-0.04933295
38	0x3c47d54a	0.012196848
39	0xbb4133f9	-0.002948044
40	0x3ce266ad	0.02763685
41	0xbe2b6431	-0.16737439
42	0xbdb03887	-0.08604532
43	0xbdf2ed19	-0.11861629
44	0x3d57015b	0.052491527
45	0xbd8bd8e1	-0.06828476
46	0xbe18660a	-0.14882675
47	0x3c84be59	0.016204046

pre_layer.5.running_mean f4 [48]
0	0xc06ac963	-3.6685417
1	0xbf968a7c	-1.1761012
2	0xbf8b37e9	-1.0876437
3	0xc036dcd8	-2.8572292
4	0xc018a4d9	-2.3850615
5	0xc016b253	-2.354634
6	0xbfd1ae3f	-1.6381301
7	0xbf19e052	-0.6010791
8	0xbf86c36f	-1.0528392
9	0xbf0c2bfe	-0.54754627
10	0xbf9225e2	-1.1417811
11	0xbfce34c5	-1.6109854
12	0xbfbac975	-1.459273
13	0xbfa1289f	-1.2590522
14	0xbf85190e	-1.0398271
15	0xc02ededb	-2.732352
16	0xc012162d	-2.2826035
17	0xc00cb3bd	-2.1984704
18	0xbf00c7be	-0.5030478
19	0xbf9f5c0f	-1.2449969
20	0x3f6d3b6a	0.92668784
21	0xbf8cf975	-1.1013628
22	0xbffdde50	-1.9833469
23	0xbf39206e	-0.7231511
24	0xbfe66d9b	-1.8002199
25	0xbfd4582b	-1.6589407
26	0xbfb04328	-1.3770494
27	0xbfd31210	-1.6489887
28	0xbe57b889	-0.21066488
29	0xbe11160c	-0.14168566
30	0xbfb14729	-1.3849841
31	0xbfdb3266	-1.7124755
32	0xbeb0b006	-0.34509295
33	0xbf5ea3e8	-0.8696885
34	0xbfc2319e	-1.5171392
35	0x3f27b178	0.6550517
36	0xbfb2f40c	-1.3980727
37	0xbfa0616f	-1.2529734
38	0xbfe0365c	-1.7516589
39	0xbf4c84cc	-0.7989013
40	0x3e9b79cd	0.30366364
41	0xbf839073	-1.0278457
42	0xbef91ce7	-0.48654863
43	0x3ec4ef56	0.3846385
44	0xbfc3f5be	-1.530937
45	0xbfbd17e8	-1.4772921
46	0x3efd791f	0.4950647
47	0xbf184013	-0.5947277

pre_layer.5.running_var f4 [48]
0	0x40d3d7b6	6.620082
1	0x3f9e1a1d	1.2351719
2	0x3fae0689	1.3595744
3	0x409b201f	4.847671
4	0x40463b10	3.097355
5	0x405fb982	3.4956975
6	0x402db55f	2.714195
7	0x3f9fa1ba	1.247123
8	0x3f89b057	1.075694
9	0x3f7baed1	0.98313624
10	0x3feb34c0	1.8375473
11	0x3f96f04b	1.1792082
12	0x3fc0c4d9	1.5060073
13	0x40148a48	2.32094
14	0x3fe2ed56	1.7728679
15	0x4083e34c	4.121496
16	0x4092d0a0	4.587967
17	0x403df48c	2.968051
18	0x3fae1d02	1.3602602
19	0x400a47b1	2.1606257
20	0x4036e3c4	2.8576517
21	0x3f883f58	1.0644331
22	0x406fde27	3.747934
23	0x3fcd5e39	1.604438
24	0x403cfec4	2.9530497
25	0x3fd807b1	1.6877347
26	0x40089026	2.1337981
27	0x3fea22a8	1.8291826
28	0x3fb30429	1.3985645
29	0x3f46da56	0.77676904
30	0x403857f4	2.8803682
31	0x4012702c	2.2880964
32	0x3fa21c43	1.2664875
33	0x3fe4f2d5	1.7886606
34	0x40053a86	2.081697
35	0x3fd218c1	1.6413804
36	0x4018230b	2.3771389
37	0x3ff82751	1.9386998
38	0x401e1d87	2.4705522
39	0x3f99d8a5	1.201924
40	0x4015da50	2.3414497
41	0x4018911d	2.383857
42	0x400f4faf	2.2392385
43	0x4017b6f9	2.3705428
44	0x4019e287	2.4044511
45	0x3f9d6a84	1.2298131
46	0x3fca3b4c	1.5799346
47	0x3fac4732	1.3459227

pre_layer.6.weight f4 [48]
0	0x3e32f652	0.17476776
1	0x3de813aa	0.113318756
2	0x3e08e03b	0.13366787
3	0x3e2b4a22	0.16727498
4	0x3e4343ed	0.1906888
5	0x3d98746c	0.07444081
6	0x3e8623e9	0.26199272
7	0x3e4bb3a3	0.19892745
8	0x3e6cd6ea	0.23128858
9	0x3e9e4258	0.3090999
10	0x3e90e046	0.28296107
11	0x3df43705	0.11924557
12	0x3e3567ba	0.1771535
13	0x3d1daf55	0.038497288
14	0x3e7a92db	0.24470083
15	0x3d9f89e8	0.077899754
16	0x3e4649aa	0.19364038
17	0x3e1d0aed	0.15336199
18	0x3e5120fe	0.20422742
19	0x3dd23b0b	0.10265168
20	0x3e089705	0.1333886
21	0x3e96377f	0.29339215
22	0x3e07c06b	0.13256995
23	0x3e22af90	0.15887284
24	0x3df1f786	0.118147895
25	0x3e27a6f6	0.16372284
26	0x3ea56f09	0.32311276
27	0x3e86739b	0.26260075
28	0x3e4eada6	0.20183429
29	0x3e0e7fc2	0.13915923
30	0x3e7720d4	0.24133617
31	0x3e8556cb	0.2604278
32	0x3e026c93	0.1273673
33	0x3e4a61fc	0.1976394
34	0x3e699a82	0.22812846
35	0x3e0d483e	0.1379709
36	0x3e72d3f9	0.23713674
37	0x3e20ddbf	0.1570959
38	0x3e416ce4	0.18889195
39	0x3da405bb	0.080089055
40	0x3e4bd21c	0.19904369
41	0x3e008445	0.12550457
42	0x3e3f3e95	0.18676217
43	0x3d936bff	0.07198333
44	0x3e83ea74	0.2576481
45	0x3e7144f5	0.23561461
46	0x3dc83410	0.09775555
47	0x3e9b4892	0.30328804

pre_layer.8.weight f4 [64, 48, 2, 2]
0	0x3d175033	0.03694172
1	0x3ddbf81d	0.10740683
2	0x3d788f1d	0.06068336
3	0x3cbcfb91	0.023069175
4	0x3df2078f	0.11817848
5	0x3dfd3671	0.123638995
6	0xbce01ffa	-0.027358998
7	0x3d8ffa6f	0.07030188
8	0xbe22ff08	-0.15917599
9	0xbcf53109	-0.029930608
10	0xbc9afe04	-0.018919952
11	0xbc9f6225	-0.019455979
12	0x3e1663bb	0.14686482
13	0x3cc418a6	0.023937535
14	0x3db1f042	0.08688404
15	0x3caf3301	0.021386625
16	0x3d5e3f37	0.054259505
17	0x3d32b898	0.043633074
18	0xbd8072a4	-0.06271866
19	0x3cc84e7f	0.024451492
20	0x3d8ce4c0	0.06879568
21	0x3c87d86f	0.016582696
22	0x3a232b88	0.0006224443
23	0x3c5b0a36	0.013369134
24	0xbdf046bb	-0.11732241
25	0x3dbbf1c5	0.09176973
26	0x3d6964bf	0.056980845
27	0xba634b58	-0.000867059
28	0x3d6d5222	0.057939656
29	0x3d7c309f	0.061569806
30	0xbdae6f7d	-0.085173585
31	0xbd912844	-0.07087758
32	0x3d47edef	0.048810896
33	0x3c2f203f	0.01068884
34	0xbddb10a2	-0.10696532
35	0xbc2f0c85	-0.010684137
36	0xbd0c02b5	-0.03418227
37	0x3d98d487	0.074624114
38	0x3d19a837	0.037513938
39	0x3d3e742b	0.046497505
40	0xbdb70784	-0.0893698
41	0x3dbe9600	0.09305954
42	0xbd93cf84	-0.07217315
43	0xbcf8088f	-0.030277519
44	0xbc9ab762	-0.018886272
45	0x3c455dbd	0.012046275
46	0xbd3ff501	-0.046864513
47	0xbcc74b0a	-0.024327774
48	0xbd8d46b7	-0.068982534
49	0xbd6bdc65	-0.05758323
50	0xbd1e48d6	-0.03864368
51	0xbc56cc4b	-0.013110231
52	0x3d29f9e5	0.041498084
53	0xbce19168	-0.027535155
54	0x3c27b1e0	0.01023528
55	0x3d64eb3e	0.055888407
56	0x3c8f6c74	0.01750777
57	0xbcb326e0	-0.021869123
58	0x3d583f11	0.05279452
59	0xbda779ef	-0.08177554
60	0x3db8d100	0.090242386
61	0xbc30c172	-0.010788308
62	0x3dba8410	0.0910722
63	0x3a86d892	0.0010287932
64	0xbd699535	-0.05702706
65	0xbd535341	-0.05159307
66	0xbd3fbd95	-0.04681166
67	0x3d8ff55f	0.07029223
68	0x3d90f482	0.07077886
69	0xbdc55431	-0.09635199
70	0xbd8d08f7	-0.068864755
71	0xbc68fc56	-0.014220318
72	0x3bb64e9e	0.005563571
73	0xbc86db8c	-0.01646211
74	0x3dc759db	0.097339354
75	0xbd7d6d6c	-0.06187193
76	0x3e15f825	0.14645441
77	0x3a2572cf	0.00063113583
78	0x3dac4c62	0.08413006
79	0x3dc0d4eb	0.09415611
80	0x3d0d3bdf	0.034480926
81	0xbd01285b	-0.031532627
82	0xbd3b104c	-0.04566984
83	0x3c93a96f	0.018025128
84	0x3d88c3c3	0.066779636
85	0x3d157cb9	0.036495898
86	0x3d016aa5	0.031595845
87	0xbdc72702	-0.09724237
88	0x3bacb877	0.0052710134
89	0xbceb831b	-0.02874904
90	0x3d190654	0.03735955
91	0x3cfd5e71	0.030928822
92	0x3d916f89	0.07101352
93	0xbda2b777	-0.079451494
94	0xbca74b63	-0.02042169
95	0xbe0167b7	-0.1263722
96	0x3d33e758	0.0439218
97	0x3cac3baf	0.021024553
98	0x3da33842	0.07969715
99	0x3dc92dee	0.098232135
100	0xbdd6f259	-0.10495443
101	0x3c2d66c2	0.010583581
102	0xbae7b46b	-0.001767767
103	0x3bee0a42	0.0072644064
104	0x3d02314e	0.031785302
105	0xbdfbcac6	-0.12294535
106	0x3c66fc9c	0.014098313
107	0xbd3bdd08	-0.04586509
108	0xbe05e807	-0.13076793
109	0xbc8e81e7	-0.017395927
110	0x3dbe2d95	0.09286038
111	0xbd670798	-0.056403726
112	0xbd152d42	-0.036420114
113	0x3d30fd61	0.04321039
114	0x3c49296e	0.012277944
115	0xbc9e52c5	-0.019326577
116	0xbd6270b5	-0.055283267
117	0x3c7639be	0.015028415
118	0x3d02eec5	0.03196599
119	0x3dbe72fd	0.09299276
120	0x3da0b063	0.07846143
121	0x3da4ca8e	0.08046447
122	0x3cc81d34	0.024427988
123	0x3d45a84b	0.0482562
124	0xbdd80751	-0.105482705
125	0x3d7a52a3	0.061113965
126	0x3c00d624	0.007863555
127	0x3d3e619f	0.046479817
128	0x3c98b15d	0.01863926
129	0xbda9bd70	-0.082880855
130	0xbd699a34	-0.057031825
131	0xbab545d8	-0.0013830019
132	0xbdb9121d	-0.09036658
133	0xbd492cb4	-0.049114898
134	0xbc0a1e05	-0.008430009
135	0xbca615e8	-0.020274118
136	0x3d317949	0.043328557
137	0xbd66db75	-0.056361634
138	0x3c2efe90	0.01068081
139	0xbd398531	-0.045293037
140	0xbca341d4	-0.01992885
141	0x3d031fea	0.032012857
142	0x3d39ca47	0.045358922
143	0xbd0079f2	-0.031366296
144	0x3d947e34	0.07250634
145	0x3d0fb53e	0.035084955
146	0xbb742786	-0.0037255003
147	0x3d63d002	0.055618294
148	0xbe0de676	-0.13857445
149	0x3ca61278	0.020272478
150	0xbd22ab33	-0.03971405
151	0x3d19b298	0.037523836
152	0xbd164d54	-0.03669484
153	0xbd6b9bff	-0.057521816
154	0xbd18ca88	-0.037302524
155	0x3d19cb54	0.037547424
156	0x3d46bec6	0.04852178
157	0x3ccfec36	0.025381189
158	0xbdcbaf17	-0.09945505
159	0x3d12c8ba	0.03583596
160	0xbb39ad43	-0.0028332032
161	0xbd8053dc	-0.06265995
162	0x3ddd28a5	0.10798768
163	0xbd47c1ae	-0.04876869
164	0xbd7e0a9e	-0.062021844
165	0x3dcdcb7c	0.10048577
166	0x3d55c83c	0.05219291
167	0x3d93d580	0.07218456
168	0xbc2734f5	-0.010205497
169	0x3d8412a2	0.064488664
170	0x3d1da373	0.038485955
171	0xbda67d49	-0.08129365
172	0x3d5b2ce4	0.053509608
173	0xbcceeec1	-0.025260331
174	0x3dde8eac	0.10867056
175	0x3cef4a0c	0.029210113
176	0x3c9d13df	0.019174514
177	0xbceeee5e	-0.029166397
178	0xbceed9bc	-0.029156558
179	0x3c569e66	0.013099289
180	0xbb7a71b8	-0.0038214754
181	0xbd0e4d39	-0.034741614
182	0xbbcadf1d	-0.006191148
183	0x3c8f5747	0.017497672
184	0x3d6849a2	0.056710847
185	0x3dc2bb0c	0.095083326
186	0x3d91ad85	0.07113174
187	0xbd549eb6	-0.05190917
188	0xbd3e6746	-0.046485208
189	0xbd17c1c0	-0.03705001
190	0xbd608038	-0.05480978
191	0xbd7313cc	-0.05934505
192	0x3df6891c	0.1203787
193	0x3c9545f2	0.01822183
194	0x3c7df7aa	0.015500942
195	0xbca0e57e	-0.01964068
196	0x3d023a65	0.03179397
197	0x3cc71c02	0.024305347
198	0xbdc8047b	-0.097664796
199	0xbbdea8ca	-0.0067950236
200	0x3d8887b2	0.06666507
201	0xbd278a0a	-0.04090313
202	0x3d10e1b9	0.035371516
203	0xbd2622d3	-0.040560555
204	0x3d724de2	0.059156306
205	0xba7697d8	-0.0009406782
206	0x3dc0aa21	0.094074495
207	0x3cc8ec1b	0.024526646
208	0xbc61763f	-0.013761102
209	0xbc783f97	-0.01515188
210	0xbb5a2b30	-0.0033289902
211	0xbc23304a	-0.0099602435
212	0x3dea646f	0.114449374
213	0x3deb0958	0.114763916
214	0xbd568210	-0.05237013
215	0xbc82b2b2	-0.01595435
216	0xbdd44b11	-0.1036588
217	0xbc6dbcf7	-0.014510385
218	0xbd8f4c80	-0.06997013
219	0x3c89001d	0.016723687
220	0xbc2bde67	-0.010490037
221	0xbcf0a250	-0.029374272
222	0x3c494751	0.01228507
223	0x3db087b9	0.08619637
224	0x3d0068a4	0.031349793
225	0x3cf46c2c	0.029836737
226	0xbce0545c	-0.027383976
227	0x3d8f978d	0.07011328
228	0xbd84d761	-0.06486393
229	0x3ce92897	0.028461738
230	0x3cbe5ea5	0.02323849
231	0x3d998773	0.07496538
232	0xbd5a8a4e	-0.053354554
233	0xbc1da3c7	-0.009621567
234	0x3d13d35d	0.036090244
235	0x3bcb8865	0.006211328
236	0x3d97a7c0	0.07405043
237	0x3c353b2f	0.011061474
238	0xbdb45138	-0.08804554
239	0xbdaf3907	-0.08555799
240	0x3d889946	0.066698596
241	0xbd9bc55b	-0.07606002
242	0x3dec624f	0.115421884
243	0x3d398f7a	0.045302846
244	0x3cbb9021	0.022895874
245	0xbd8f38fe	-0.06993292
246	0x3d427d86	0.04748299
247	0xbb92312f	-0.0044614295
248	0x3e15c365	0.14625318
249	0xbca9bb25	-0.02071912
250	0xbcc9f9be	-0.02465522
251	0xbc958e40	-0.018256307
252	0x3d5c6c3d	0.05381416
253	0xbc990bab	-0.018682322
254	0x3cbf4078	0.02334617
255	0x3c56bd0c	0.013106596

pre_layer.8.bias f4 [64]
0	0x3d84438f	0.06458198
1	0xbd8118ee	-0.06303583
2	0xbc8cccf5	-0.017187575
3	0xbd8e4648	-0.06946999
4	0x3d3576be	0.044302694
5	0x3d7a1cfc	0.061062798
6	0xbd017a53	-0.031610798
7	0x3d0d573e	0.03450703
8	0xbcc0b0a1	-0.023521723
9	0xbb4341a8	-0.0029793773
10	0x3d82c6d0	0.06385577
11	0x3d5e5ba2	0.054286607
12	0xbd258f86	-0.040420078
13	0xbcb0f5fe	-0.021601673
14	0xbd04a6dc	-0.032385692
15	0x3d219cce	0.03945618
16	0x3d3a9e93	0.045561384
17	0xbd05a580	-0.032628536
18	0x3cf40827	0.029789044
19	0x3ced1cfa	0.028944481
20	0xbb5343a5	-0.0032236364
21	0x3d679564	0.056538954
22	0xbd4f1a36	-0.050562106
23	0x3d356150	0.044282258
24	0xbd50c486	-0.05096867
25	0xbd0c2ded	-0.034223486
26	0x3d982f5b	0.07430907
27	0xbce9e20b	-0.028550168
28	0xbac29526	-0.0014845475
29	0x3adbfd04	0.0016783779
30	0xbd4560b0	-0.04818791
31	0xbd1f8d77	-0.03895327
32	0x3d823305	0.063573875
33	0xbd0ecb35	-0.034861762
34	0x3d623d06	0.055233978
35	0xbd882780	-0.06648159
36	0x3c511440	0.012761176
37	0x3d76153e	0.060078852
38	0x3bc256d3	0.0059307604
39	0xbc84a9cb	-0.016194245
40	0x3c9f15af	0.01941952
41	0xbc9dd69a	-0.019267369
42	0xbd442802	-0.047889717
43	0xbc61c674	-0.013780225
44	0x3cdad2fc	0.026711933
45	0xbbbd08c8	-0.005768869
46	0x3d05055c	0.032475814
47	0x3cbae7d9	0.022815632
48	0x3d769a59	0.06020579
49	0x3d99640e	0.07489787
50	0xbd669082	-0.056290157
51	0x3d89fc1a	0.06737538
52	0xbd419975	-0.04726549
53	0x3d056ac7	0.032572534
54	0x3c63edbe	0.013911663
55	0x3cdfa15d	0.027298624
56	0x3b54dc26	0.0032479852
57	0x3d5a0a09	0.053232227
58	0xbcf03ed3	-0.029326832
59	0x3c8fd6dc	0.017558508
60	0x3d038007	0.03210452
61	0x3d040694	0.032232836
62	0xbd6a44f7	-0.057194676
63	0xbd3fde6c	-0.046842977

pre_layer.9.weight f4 [64]
0	0x3f842c75	1.0326067
1	0x3f8639aa	1.0486348
2	0x3f7a5ebe	0.97800815
3	0x3f74f93f	0.9569282
4	0x3f80d6b2	1.006552
5	0x3f829a0d	1.0203263
6	0x3f6e6d2c	0.93135333
7	0x3f826220	1.0186195
8	0x3f73f0ee	0.95289505
9	0x3f7ca861	0.98694426
10	0x3f85cb01	1.0452577
11	0x3f8baedb	1.0912737
12	0x3f77eae7	0.9684281
13	0x3f6b6e7c	0.9196546
14	0x3f6dfc7c	0.92963386
15	0x3f5d9330	0.86552715
16	0x3f79f45d	0.97638494
17	0x3f71a867	0.94397587
18	0x3f71b847	0.9442181
19	0x3f7e9318	0.994432
20	0x3f7e088f	0.9923181
21	0x3f8b2be5	1.087277
22	0x3f835e9f	1.0263251
23	0x3f7896d6	0.9710516
24	0x3f7ce373	0.9878456
25	0x3f84bfd4	1.0371041
26	0x3f8c8c0d	1.098024
27	0x3f801ef7	1.000945
28	0x3f78c57d	0.97176343
29	0x3f80a9a6	1.0051773
30	0x3f7eace0	0.99482536
31	0x3f7ef708	0.9959569
32	0x3f686c88	0.90790606
33	0x3f783304	0.96952844
34	0x3f7ef0aa	0.99585974
35	0x3f796894	0.974252
36	0x3f82e342	1.0225604
37	0x3f847b3a	1.0350106
38	0x3f876e73	1.0580581
39	0x3f7c8c87	0.9865193
40	0x3f8b8bb2	1.0902007
41	0x3f835be0	1.0262413
42	0x3f84264f	1.0324191
43	0x3f96c567	1.1778992
44	0x3f7d075d	0.9883936
45	0x3f82e7e2	1.0227015
46	0x3f89f585	1.0778052
47	0x3f8008ab	1.0002645
48	0x3f84d21f	1.0376624
49	0x3f8cc844	1.0998616
50	0x3f86801f	1.050785
51	0x3f87e221	1.0615884
52	0x3f82b494	1.0211358
53	0x3f8960d4	1.0732675
54	0x3f86522c	1.0493827
55	0x3f7a5c58	0.97797155
56	0x3f87de44	1.0614705
57	0x3f7b005a	0.9804741
58	0x3f80400a	1.0019543
59	0x3f72a7b4	0.94787145
60	0x3f76c15b	0.9638879
61	0x3f8948e1	1.0725366
62	0x3f7fe743	0.9996225
63	0x3f800328	1.0000963

pre_layer.9.bias f4 [64]
0	0xbdde0d4d	-0.10842381
1	0xbd55203f	-0.052032705
2	0x3cad9f91	0.021194251
3	0x3c597ba6	0.013274109
4	0x3c42fe8a	0.011901507
5	0x3bd8f712	0.00662125
6	0xbd9f2c7c	-0.077721566
7	0xbb93bf19	-0.0045088646
8	0xbd3033c1	-0.043018106
9	0xbd50291c	-0.050820455
10	0xbc98fe86	-0.018676054
11	0xbd2f7538	-0.042836398
12	0xbc3679dc	-0.011137452
13	0xbc9395f1	-0.018015834
14	0xbda4e5e6	-0.08051662
15	0xbe00c242	-0.12574103
16	0xbb113715	-0.0022158076
17	0xbd842cfe	-0.06453894
18	0xbdd48c0e	-0.10378276
19	0xbd2bad90	-0.04191357
20	0xbc092263	-0.008370015
21	0xbd86ffd5	-0.06591765
22	0xbd3b8a45	-0.04578616
23	0xbd6c1b45	-0.057643194
24	0x3cae00cd	0.021240616
25	0xbd4800be	-0.048828833
26	0xbd0d6bbc	-0.03452657
27	0xbd3f59bd	-0.04671644
28	0xbd5cfb8d	-0.053950835
29	0xbb864858	-0.0040979795
30	0x3d1baaf2	0.038004823
31	0x3cccb1d1	0.024987133
32	0xbe129b80	-0.14317131
33	0xbd5b7a49	-0.053583417
34	0xbb1348b1	-0.0022473747
35	0xbcb51dd5	-0.022108952
36	0xbcacc4b2	-0.021089885
37	0x3d11fcca	0.03564147
38	0xbb3dfac1	-0.0028988572
39	0xbbe8e9e5	-0.0071079605
40	0x3d2624a2	0.04056228
41	0xbd708ae4	-0.058726206
42	0xbbfba8ad	-0.00768002
43	0x3db741c6	0.08948092
44	0x3c616080	0.013755918
45	0xbe26aa07	-0.16275798
46	0xbcc898ca	-0.024486918
47	0xbd82e5ec	-0.0639151
48	0x3b1da44d	0.002405423
49	0x3d362347	0.044467237
50	0x3c330424	0.01092628
51	0xbc85d179	-0.016335236
52	0x3b7da03c	0.0038700243
53	0x3c446ead	0.011989278
54	0xbd7a9b2e	-0.061183147
55	0xbd175df0	-0.03695482
56	0x3dd0fc9d	0.10204432
57	0x3c2a92c0	0.0104109645
58	0xbb338a45	-0.0027395647
59	0xbd301f13	-0.042998385
60	0x3cc8e360	0.024522483
61	0xbd3fc6a7	-0.04682031
62	0xbccf5435	-0.025308708
63	0xbd6eab36	-0.05826875

pre_layer.9.running_mean f4 [64]
0	0x3e51db29	0.20493759
1	0x3f37a301	0.717331
2	0xbfab24cb	-1.3370603
3	0xbf687b12	-0.9081279
4	0xbfba3c43	-1.454964
5	0xbf1d09da	-0.6134316
6	0xbe90f574	-0.28312266
7	0xbf728edb	-0.9474923
8	0xbf640ad8	-0.89079046
9	0x3e290ae7	0.16508065
10	0xbee79a56	-0.45234936
11	0xbfbfcff0	-1.4985332
12	0xbf5d0616	-0.8633741
13	0x3efda9c9	0.49543598
14	0xbf2f3129	-0.6843439
15	0xbda6eb63	-0.08150365
16	0xbfc8f6bd	-1.5700299
17	0x3d8bea1a	0.06831761
18	0x401acd0a	2.4187646
19	0xbe722cb2	-0.23649862
20	0xc032f183	-2.7959907
21	0x3ea3f530	0.32023
22	0x3f1c29b1	0.61001116
23	0x3f4daa50	0.80338
24	0xc0016897	-2.0220087
25	0xbf20e282	-0.62845623
26	0xbfa59b10	-1.2937946
27	0xbf1d83e1	-0.61529356
28	0xbf907759	-1.1286422
29	0xbf5a75f1	-0.85336214
30	0xbf580743	-0.8438608
31	0xbfd13e85	-1.6347204
32	0xbf26392d	-0.64930993
33	0xbfa7a320	-1.3096657
34	0xbf8647e0	-1.0490685
35	0xbf8af5cf	-1.0856265
36	0xbf446d19	-0.7672897
37	0x3e6d5ac5	0.23179157
38	0xbfb9a59b	-1.4503664
39	0x3eb12783	0.34600458
40	0xbf871c44	-1.0555501
41	0xbe9d7500	-0.30753326
42	0x3f8a1f98	1.0790892
43	0xbfdeb159	-1.7397872
44	0xbe1da77f	-0.15395926
45	0x3f96e016	1.1787136
46	0xbec5c082	-0.38623434
47	0x3f9f64e8	1.2452669
48	0xbfcdd3c4	-1.6080251
49	0xbf2d16c9	-0.6761289
50	0xbea649cd	-0.3247818
51	0xbd5938b7	-0.053032603
52	0xbf8c8f43	-1.098122
53	0x3dc7a987	0.09749132
54	0xbeaaddb2	-0.33372265
55	0xc01fc8d8	-2.4966335
56	0x3d8e65dd	0.06953023
57	0xbfdd1889	-1.7273113
58	0xbf2463be	-0.64214694
59	0x3f7dcee3	0.9914381
60	0xbf11abd1	-0.56902796
61	0xbebc31e9	-0.36756828
62	0xbf2a5126	-0.6653007
63	0x3f41f77b	0.7576825

pre_layer.9.running_var f4 [64]
0	0x3f1b4f83	0.606682
1	0x3e945961	0.2897444
2	0x3eeadae5	0.45870128
3	0x3eab6f32	0.33483273
4	0x3f20b75d	0.6277979
5	0x3eab4298	0.33449244
6	0x3f181009	0.5939947
7	0x3ed09d5e	0.40745062
8	0x3ea70b6f	0.3262591
9	0x3e767086	0.24066362
10	0x3f04d2d0	0.51884174
11	0x3f22700f	0.6345224
12	0x3ec66c0b	0.38754305
13	0x3ecf8779	0.40533045
14	0x3f3adac1	0.7299004
15	0x3f1583fb	0.5840451
16	0x3fafaeef	1.372526
17	0x3f23efa7	0.64037555
18	0x3f13c699	0.5772491
19	0x3f3e2a08	0.74282885
20	0x3f89e12e	1.0771844
21	0x3eb7c0e8	0.35889363
22	0x3ee24e9a	0.44200593
23	0x3f020ffc	0.5080564
24	0x3f1fed6f	0.6247167
25	0x3ed4ac20	0.4153757
26	0x3f15dc42	0.5853921
27	0x3f17119a	0.5901123
28	0x3f807a53	1.003733
29	0x3f22a812	0.63537705
30	0x3f7feec2	0.9997369
31	0x3ebf8fd7	0.3741443
32	0x3f034f82	0.51293194
33	0x3f412c0a	0.75457823
34	0x3f11d760	0.5696926
35	0x3e8b36f4	0.27190363
36	0x3f0f85ce	0.56063545
37	0x3eeea4cb	0.46610102
38	0x3ec96da7	0.3934147
39	0x3f875501	1.0572816
40	0x3e9ebe7c	0.31004703
41	0x3f2aa144	0.6665232
42	0x3f90d360	1.1314507
43	0x3f2aea73	0.6676399
44	0x3f33181e	0.69958675
45	0x3f32fa48	0.6991315
46	0x3ecc10e6	0.39856642
47	0x3f32d2bf	0.69852823
48	0x3f1489d5	0.58022815
49	0x3ebff58c	0.37492025
50	0x3f1dbfb2	0.6162063
51	0x3ed342c9	0.4126189
52	0x3f00da0e	0.50332725
53	0x3f2c0fe3	0.6721174
54	0x3efb541d	0.4908761
55	0x3f8201aa	1.0156758
56	0x3e90d7d5	0.28289667
57	0x3f26d59c	0.6516969
58	0x3f31a229	0.6938806
59	0x3ebf73cd	0.37393036
60	0x3f309881	0.689827
61	0x3f4881ab	0.7832286
62	0x3f663912	0.8993083
63	0x3f17e2fc	0.59330726

pre_layer.10.weight f4 [64]
0	0x3db5c105	0.08874706
1	0x3e3139c9	0.173072
2	0x3dd557d2	0.10417141
3	0x3e43b359	0.19111384
4	0x3e106cf9	0.1410407
5	0x3e3c3e69	0.18383183
6	0x3e4e54e6	0.20149574
7	0x3e0097e6	0.12557945
8	0x3dc39d7a	0.09551521
9	0x3e35dc88	0.17759907
10	0x3ddbedb2	0.10738696
11	0x3d844974	0.064593226
12	0x3e1f4685	0.15554245
13	0x3e3a26c4	0.1817885
14	0x3d81774e	0.06321584
15	0x3dbf5822	0.09342982
16	0x3e1ddfd9	0.15417422
17	0x3e1138d3	0.14181833
18	0x3e0e85b2	0.13918188
19	0x3e584cfa	0.21123114
20	0x3d9b75d1	0.07590831
21	0x3dec3144	0.11532834
22	0x3d8cac5a	0.06868811
23	0x3e039ce5	0.1285282
24	0x3e1745b8	0.1477269
25	0x3e2c828c	0.16846675
26	0x3da52962	0.08064534
27	0x3dabd99c	0.08391115
28	0x3e2f5772	0.17123201
29	0x3e01d2dc	0.12678093
30	0x3e2231d8	0.15839326
31	0x3e281c10	0.16416955
32	0x3da1d203	0.07901385
33	0x3d9cdbee	0.07659136
34	0x3e02a333	0.12757568
35	0x3e095b58	0.13413751
36	0x3dd7a2ed	0.105291225
37	0x3df1daf8	0.11809343
38	0x3de4e894	0.11177173
39	0x3dbe5186	0.09292893
40	0x3e83946d	0.25699177
41	0x3db26290	0.087102056
42	0x3de3d959	0.1112544
43	0x3d99a304	0.07501796
44	0x3e1e55d4	0.15462428
45	0x3cc5f946	0.024166714
46	0x3df5e2fd	0.12006185
47	0x3dfb860a	0.12281425
48	0x3de358ff	0.11100959
49	0x3e063eef	0.13109945
50	0x3e517aed	0.20457049
51	0x3db71f0f	0.08941471
52	0x3e08a2a8	0.13343298
53	0x3de34e37	0.11098903
54	0x3d9d50f9	0.0768146
55	0x3dd235b8	0.10264152
56	0x3e75820d	0.23975392
57	0x3e184df5	0.14873488
58	0x3e23c46a	0.15992895
59	0x3e08561b	0.13314097
60	0x3e0e7e32	0.13915327
61	0x3d4d0c2e	0.050060444
62	0x3e2cafad	0.1686389
63	0x3e0afc34	0.1357277

linear4.0.weight f4 [128, 576]
0	0x3d1c8706	0.038214706
1	0xbcb6f3fe	-0.022333141
2	0xbc27448f	-0.010209217
3	0xbc97b28b	-0.018517753
4	0x3c8fccc9	0.017553704
5	0x3d772126	0.060334347
6	0x3d395766	0.045249365
7	0x3c9f2259	0.019425558
8	0x3b025d6f	0.0019892117
9	0x3d43e9f3	0.047830533
10	0xbc1eb4c1	-0.00968665
11	0x3ce465f6	0.02788065
12	0xbda68629	-0.08131058
13	0xbd84febd	-0.064939
14	0x3d160dd4	0.03663428
15	0xbd1a7278	-0.037706822
16	0xbd9ee140	-0.07757807
17	0x3d5f488e	0.054512553
18	0x3bb12e5a	0.005407137
19	0xbcf24454	-0.029573597
20	0x3c018a11	0.007906453
21	0x3ce0a158	0.027420685
22	0x3c98dc9f	0.018659888
23	0xbd6998ca	-0.057030477
24	0xbc20dc12	-0.009818094
25	0xbbe366a1	-0.0069397246
26	0xbca7b55c	-0.020472221
27	0x3d904d64	0.07046011
28	0xbb966d3b	-0.004590658
29	0xbd2f3363	-0.042773616
30	0xbc63076f	-0.013856753
31	0x3c5c4129	0.01344327
32	0x3cc7bc28	0.024381712
33	0xbb88bcde	-0.0041729053
34	0x3c99ef7a	0.01879095
35	0xbd494756	-0.049140297
36	0x3cd0c130	0.025482744
37	0x3c177d17	0.009246132
38	0xbc23cba3	-0.009997281
39	0x3d2b3d58	0.04180655
40	0x3ce5ac93	0.028036391
41	0xbcf00fc8	-0.0293044
42	0xbc8f995e	-0.017529186
43	0xbcba8633	-0.02276907
44	0x3d3febed	0.046855856
45	0x3d89ee4a	0.06734903
46	0x3ca4b253	0.020104563
47	0xbd268b06	-0.040659927
48	0xbd32b8de	-0.043633334
49	0xbd2267ad	-0.039649654
50	0xbd9cbd01	-0.07653237
51	0xbcb31420	-0.021860182
52	0x3ad3181f	0.0016105211
53	0xbbb5a211	-0.0055430015
54	0xbc3cac48	-0.011515684
55	0xbd3179bc	-0.043328986
56	0x3cae0e29	0.021246986
57	0x3d2c3061	0.042038325
58	0xbd0732b9	-0.033007357
59	0xbd55ea7f	-0.052225586
60	0x3d29e48e	0.041477732
61	0x3d045793	0.03231008
62	0xbab63f59	-0.0013904377
63	0xbda559a1	-0.08073736
64	0xbd51e538	-0.05124399
65	0xbc57b7a5	-0.013166343
66	0xbca58b5f	-0.020208059
67	0x3ccb37d5	0.024806896
68	0x3c1bf99a	0.009519959
69	0x3cb01621	0.021494927
70	0x3cce0a48	0.025151387
71	0x3befabe8	0.007314194
72	0x3c5c6d86	0.013453847
73	0x3ccae12d	0.024765575
74	0xbd134c9b	-0.03596173
75	0x3d718787	0.05896714
76	0xbd770162	-0.060304053
77	0x3cd14398	0.025544927
78	0xbcc61b0c	-0.024182819
79	0xbc3098b1	-0.010778592
80	0x3d4ed16e	0.050492696
81	0xbd0923db	-0.03348146
82	0x3d537b8d	0.0516315
83	0xbc63fe43	-0.013915601
84	0xbc46d8bd	-0.012136635
85	0x3d187ea5	0.037230153
86	0x3bf40297	0.007446598
87	0xbce4eb52	-0.02794424
88	0x3d399558	0.04530844
89	0x3beba39d	0.007191135
90	0x3cf132bc	0.029443137
91	0xbd40ace3	-0.047039878
92	0xbca4f643	-0.020136958
93	0xbca41903	-0.020031458
94	0xbc610f26	-0.013736522
95	0x3d4203e6	0.047367
96	0x3d21d44d	0.039509106
97	0x3d8d1e3b	0.06890532
98	0xbd9e1eac	-0.07720694
99	0x3b837aad	0.004012427
100	0x3d0a7c05	0.03380968
101	0xbc4bd5f0	-0.012441143
102	0xbd963242	-0.07333805
103	0xbc3d36fb	-0.011548753
104	0xbb3d6186	-0.002889724
105	0xbd46e666	-0.04855957
106	0xbd35e8cd	-0.04441147
107	0xbdb62d8b	-0.088954054
108	0xbc5f8bb4	-0.013644148
109	0x39310056	0.0001688016
110	0xbd699021	-0.057022218
111	0x3d22c65c	0.03973995
112	0x3a20d853	0.00061357504
113	0xbd176284	-0.036959186
114	0xbcd67055	-0.026176611
115	0xbd004f7b	-0.0313258
116	0xbd2b2a5c	-0.041788444
117	0xbd04d03c	-0.03242515
118	0x3d759bb8	0.059962958
119	0x3d078192	0.033082552
120	0x3d45e5ce	0.048314862
121	0x3d65d25a	0.05610881
122	0xbd028543	-0.03186537
123	0x3c15de05	0.009147172
124	0x3d53cc39	0.051708434
125	0xbcb507c3	-0.022098428
126	0x3ca55892	0.020183835
127	0x3d2209e5	0.039560217
128	0x3d6c8213	0.057741236
129	0x3cffe1fa	0.031235684
130	0xbb4c6878	-0.0031190198
131	0xbcd5a928	-0.026081637
132	0x3d0e5776	0.034751378
133	0xbb9e454f	-0.0048300396
134	0x3d01d6e2	0.03169907
135	0xbc67d231	-0.014149235
136	0xbbb57b57	-0.005538385
137	0xbbf50898	-0.007477831
138	0x3d361469	0.04445306
139	0x3c22f2bc	0.009945568
140	0x3c3c468d	0.01149143
141	0xbc401cde	-0.0117256325
142	0x3c62996c	0.013830524
143	0x3cd97cf4	0.02654884
144	0xbcb0340a	-0.02150919
145	0x3cb687de	0.022281583
146	0x3c4dc13c	0.012558278
147	0xbd26ac87	-0.04069188
148	0xbc5575ce	-0.013028575
149	0xbd70312a	-0.058640637
150	0xbae2b903	-0.001729757
151	0x3d2655ae	0.040609054
152	0x3cf544e4	0.029940076
153	0xbcacb78a	-0.021083612
154	0x3c9205e7	0.01782508
155	0x3d525fce	0.051360898
156	0x3bfc313a	0.007696298
157	0xbd38907c	-0.045059666
158	0x3c9831c1	0.018578412
159	0x3c301a29	0.010748425
160	0x3adf205d	0.0017023195
161	0x3cb05297	0.021523757
162	0x3cb8e214	0.02256874
163	0x3d26c1c9	0.04071215
164	0x3ca220c2	0.01979101
165	0x3ab3af84	0.0013708924
166	0x3bb0da60	0.005397126
167	0xbc7f8243	-0.015595022
168	0x3cee5f07	0.029098047
169	0xbcc8bd71	-0.024504395
170	0x3c566de0	0.01308772
171	0xbccc12e4	-0.024911352
172	0xbab494c7	-0.0013777249
173	0x3d3d2791	0.04618031
174	0xbd893560	-0.066996336
175	0xbb9fff45	-0.0048827254
176	0x3ce2cf95	0.027686873
177	0xbcd78bca	-0.026311774
178	0x3d17acc5	0.03703
179	0xbd2566f2	-0.04038138
180	0x3cb3a8c8	0.021931067
181	0xbda74848	-0.081680834
182	0xbd66e9ce	-0.056375317
183	0xbcf6f7c7	-0.030147446
184	0xbd20d4f3	-0.039265584
185	0xbcc57ab0	-0.024106354
186	0xbce8dec4	-0.028426535
187	0xbd887c47	-0.06664329
188	0xbb9f3efb	-0.004859803
189	0xbc500397	-0.012696168
190	0x3d1830fa	0.037156083
191	0xbd19c87b	-0.03754471
192	0xbd97bbf9	-0.074089
193	0xbd4a558b	-0.049397986
194	0xbc987470	-0.01861021
195	0x3d509331	0.050921623
196	0xbc5a6844	-0.013330523
197	0x3c24ad4d	0.010051084
198	0xbd42cbc2	-0.0475576
199	0x3c407613	0.011746901
200	0xbc1aea64	-0.009455297
201	0xb83f7ebf	-4.565599e-05
202	0xbcebb547	-0.028772963
203	0x3a91eafa	0.001113265
204	0xbdb61351	-0.08890403
205	0xbd5cff41	-0.053954367
206	0xbd99a888	-0.07502848
207	0xbcd2af05	-0.025718221
208	0xbc25bca0	-0.0101157725
209	0xbc851e79	-0.016249882
210	0xbd116586	-0.03549721
211	0x3d0c053b	0.034184676
212	0xbd470895	-0.04859217
213	0x3b092625	0.0020927277
214	0x3ce45df9	0.02787684
215	0x3d3e17ea	0.046409525
216	0x3c89471f	0.016757546
217	0xbc95adb8	-0.018271312
218	0xbceddbc7	-0.029035462
219	0xbc6e3942	-0.0145400185
220	0xbd19e51d	-0.037572015
221	0xbce93bb8	-0.028470859
222	0x3c339e17	0.0109629845
223	0xbd40afea	-0.047042765
224	0x3c933119	0.017967748
225	0xbd70a955	-0.058755238
226	0x3cf5d1bf	0.030007241
227	0x3d8caf6d	0.06869397
228	0x3c766e89	0.015041002
229	0x3d1241ae	0.03570717
230	0xbc6bf634	-0.014401961
231	0xbcdf2bf7	-0.027242644
232	0xbc34a058	-0.011024557
233	0xba91d243	-0.0011125285
234	0xbd2d39eb	-0.042291563
235	0xbd3a0988	-0.045419246
236	0x3b732ef9	0.0037106855
237	0xbd9113d6	-0.070838615
238	0xbd001b15	-0.031275827
239	0x3c3895c6	0.0112661775
240	0x3d8e1338	0.069372594
241	0x3cbde753	0.023181593
242	0x3d1bf953	0.03807957
243	0xbc8bf40f	-0.01708415
244	0x3c66c6d4	0.01408549
245	0x3d85e6a0	0.06538129
246	0x3c5174d1	0.012784199
247	0xbcc9f2b7	-0.024651868
248	0x3ccad757	0.024760885
249	0x3cc8e0b8	0.024521217
250	0xbcada7fb	-0.021198263
251	0x3d3ac85f	0.045601245
252	0x3c513367	0.012768603
253	0xbb697e8f	-0.0035628413
254	0xbc8e6e14	-0.017386474
255	0x3cc68618	0.024233863
